ST Edge AI Core v2.2.0-20266 2adc00962
Created date          : 2026-01-10 04:11:19
Parameters            : generate --target stm32h7 --name vehicle_detector -m E:/uint8-float_mobilenetV2-0.35_acc0.972.tflite --compression none --verbosity 1 --workspace C:/Users/ADMINI~1/AppData/Local/Temp/mxAI_workspace54399437629249916378626106271992298 --output C:/Users/administor/.stm32cubemx/vehicle_detector_output

Exec/report summary (generate)
-------------------------------------------------------------------------------------------------------------------------------------
model file         :   E:\uint8-float_mobilenetV2-0.35_acc0.972.tflite                                                               
type               :   tflite                                                                                                        
c_name             :   vehicle_detector                                                                                              
compression        :   none                                                                                                          
options            :   allocate-inputs, allocate-outputs                                                                             
optimization       :   balanced                                                                                                      
target/series      :   stm32h7                                                                                                       
workspace dir      :   C:\Users\ADMINI~1\AppData\Local\Temp\mxAI_workspace54399437629249916378626106271992298                        
output dir         :   C:\Users\administor\.stm32cubemx\vehicle_detector_output                                                      
model_fmt          :   sa/ua per tensor                                                                                              
model_name         :   uint8float_mobilenetV20_35_acc0_972                                                                           
model_hash         :   0xde5ff43ecc155cdc85f0b89c0cd31a15                                                                            
params #           :   408,303 items (419.40 KiB)                                                                                    
-------------------------------------------------------------------------------------------------------------------------------------
input 1/1          :   'serving_default_mo.._96_input0', uint8(1x96x96x3), 27.00 KBytes, QLinear(1.000000000,0,uint8), activations   
output 1/1         :   'conversion_70', f32(1x15), 60 Bytes, activations                                                             
macc               :   10,762,574                                                                                                    
weights (ro)       :   429,468 B (419.40 KiB) (1 segment) / -1,203,744(-73.7%) vs float model                                        
activations (rw)   :   129,536 B (126.50 KiB) (1 segment) *                                                                          
ram (total)        :   129,536 B (126.50 KiB) = 129,536 + 0 + 0                                                                      
-------------------------------------------------------------------------------------------------------------------------------------
(*) 'input'/'output' buffers are allocated in the activations buffer

Model name - uint8float_mobilenetV20_35_acc0_972
------ ------------------------------------------------ ---------------------- ----------------- ----------- -------------------------------- --- -------------- ------------------- ---------------------- 
m_id   layer (type,original)                            oshape                 param/size               macc                     connected to   | c_size         c_macc              c_type                 
------ ------------------------------------------------ ---------------------- ----------------- ----------- -------------------------------- --- -------------- ------------------- ---------------------- 
0      serving_default_mo.._96_input0 (Input, )         [b:1,h:96,w:96,c:3]                                                                     |                +55,296(+100.0%)    Conversion_[0]         
       conversion_0 (Conversion, QUANTIZE)              [b:1,h:96,w:96,c:3]                           55,296   serving_default_mo.._96_input0   |                -55,296(-100.0%)    
------ ------------------------------------------------ ---------------------- ----------------- ----------- -------------------------------- --- -------------- ------------------- ---------------------- 
1      conv2d_1 (Conv2D, CONV_2D)                       [b:1,h:48,w:48,c:16]   448/496               995,344                     conversion_0   |                                    Conv2D_[1]             
       nl_1_nl (Nonlinearity, CONV_2D)                  [b:1,h:48,w:48,c:16]                          36,864                         conv2d_1   |                -36,864(-100.0%)    
------ ------------------------------------------------ ---------------------- ----------------- ----------- -------------------------------- --- -------------- ------------------- ---------------------- 
2      conv2d_2 (Conv2D, DEPTHWISE_CONV_2D)             [b:1,h:48,w:48,c:16]   160/208               331,792                          nl_1_nl   |                                    Pad_/Conv2D_[2, 3]     
       nl_2_nl (Nonlinearity, DEPTHWISE_CONV_2D)        [b:1,h:48,w:48,c:16]                          36,864                         conv2d_2   |                -36,864(-100.0%)    
------ ------------------------------------------------ ---------------------- ----------------- ----------- -------------------------------- --- -------------- ------------------- ---------------------- 
3      conv2d_3 (Conv2D, CONV_2D)                       [b:1,h:48,w:48,c:8]    136/160               294,920                          nl_2_nl   |                                    Conv2D_[4]             
------ ------------------------------------------------ ---------------------- ----------------- ----------- -------------------------------- --- -------------- ------------------- ---------------------- 
4      conv2d_4 (Conv2D, CONV_2D)                       [b:1,h:48,w:48,c:48]   432/576               884,784                         conv2d_3   |                                    Conv2D_[5]             
       nl_4_nl (Nonlinearity, CONV_2D)                  [b:1,h:48,w:48,c:48]                         110,592                         conv2d_4   |                -110,592(-100.0%)   
------ ------------------------------------------------ ---------------------- ----------------- ----------- -------------------------------- --- -------------- ------------------- ---------------------- 
5      pad_5 (Pad, PAD)                                 [b:1,h:49,w:49,c:48]                                                          nl_4_nl   |                                    Pad_[6]                
------ ------------------------------------------------ ---------------------- ----------------- ----------- -------------------------------- --- -------------- ------------------- ---------------------- 
6      conv2d_6 (Conv2D, DEPTHWISE_CONV_2D)             [b:1,h:24,w:24,c:48]   480/624               248,880                            pad_5   |                                    Conv2D_[7]             
       nl_6_nl (Nonlinearity, DEPTHWISE_CONV_2D)        [b:1,h:24,w:24,c:48]                          27,648                         conv2d_6   |                -27,648(-100.0%)    
------ ------------------------------------------------ ---------------------- ----------------- ----------- -------------------------------- --- -------------- ------------------- ---------------------- 
7      conv2d_7 (Conv2D, CONV_2D)                       [b:1,h:24,w:24,c:8]    392/416               221,192                          nl_6_nl   |                                    Conv2D_[8]             
------ ------------------------------------------------ ---------------------- ----------------- ----------- -------------------------------- --- -------------- ------------------- ---------------------- 
8      conv2d_8 (Conv2D, CONV_2D)                       [b:1,h:24,w:24,c:48]   432/576               221,232                         conv2d_7   |                                    Conv2D_[9]             
       nl_8_nl (Nonlinearity, CONV_2D)                  [b:1,h:24,w:24,c:48]                          27,648                         conv2d_8   |                -27,648(-100.0%)    
------ ------------------------------------------------ ---------------------- ----------------- ----------- -------------------------------- --- -------------- ------------------- ---------------------- 
9      conv2d_9 (Conv2D, DEPTHWISE_CONV_2D)             [b:1,h:24,w:24,c:48]   480/624               248,880                          nl_8_nl   |                                    Pad_/Conv2D_[10, 11]   
       nl_9_nl (Nonlinearity, DEPTHWISE_CONV_2D)        [b:1,h:24,w:24,c:48]                          27,648                         conv2d_9   |                -27,648(-100.0%)    
------ ------------------------------------------------ ---------------------- ----------------- ----------- -------------------------------- --- -------------- ------------------- ---------------------- 
10     conv2d_10 (Conv2D, CONV_2D)                      [b:1,h:24,w:24,c:8]    392/416               221,192                          nl_9_nl   |                                    Conv2D_[12]            
------ ------------------------------------------------ ---------------------- ----------------- ----------- -------------------------------- --- -------------- ------------------- ---------------------- 
11     eltwise_11 (Eltwise, ADD)                        [b:1,h:24,w:24,c:8]                            4,608                         conv2d_7   |                                    Eltwise/add_[13]       
                                                                                                                                    conv2d_10   | 
------ ------------------------------------------------ ---------------------- ----------------- ----------- -------------------------------- --- -------------- ------------------- ---------------------- 
12     conv2d_12 (Conv2D, CONV_2D)                      [b:1,h:24,w:24,c:48]   432/576               221,232                       eltwise_11   |                                    Conv2D_[14]            
       nl_12_nl (Nonlinearity, CONV_2D)                 [b:1,h:24,w:24,c:48]                          27,648                        conv2d_12   |                -27,648(-100.0%)    
------ ------------------------------------------------ ---------------------- ----------------- ----------- -------------------------------- --- -------------- ------------------- ---------------------- 
13     pad_13 (Pad, PAD)                                [b:1,h:25,w:25,c:48]                                                         nl_12_nl   |                                    Pad_[15]               
------ ------------------------------------------------ ---------------------- ----------------- ----------- -------------------------------- --- -------------- ------------------- ---------------------- 
14     conv2d_14 (Conv2D, DEPTHWISE_CONV_2D)            [b:1,h:12,w:12,c:48]   480/624                62,256                           pad_13   |                                    Conv2D_[16]            
       nl_14_nl (Nonlinearity, DEPTHWISE_CONV_2D)       [b:1,h:12,w:12,c:48]                           6,912                        conv2d_14   |                -6,912(-100.0%)     
------ ------------------------------------------------ ---------------------- ----------------- ----------- -------------------------------- --- -------------- ------------------- ---------------------- 
15     conv2d_15 (Conv2D, CONV_2D)                      [b:1,h:12,w:12,c:16]   784/832               110,608                         nl_14_nl   |                                    Conv2D_[17]            
------ ------------------------------------------------ ---------------------- ----------------- ----------- -------------------------------- --- -------------- ------------------- ---------------------- 
16     conv2d_16 (Conv2D, CONV_2D)                      [b:1,h:12,w:12,c:96]   1,632/1,920           221,280                        conv2d_15   |                                    Conv2D_[18]            
       nl_16_nl (Nonlinearity, CONV_2D)                 [b:1,h:12,w:12,c:96]                          13,824                        conv2d_16   |                -13,824(-100.0%)    
------ ------------------------------------------------ ---------------------- ----------------- ----------- -------------------------------- --- -------------- ------------------- ---------------------- 
17     conv2d_17 (Conv2D, DEPTHWISE_CONV_2D)            [b:1,h:12,w:12,c:96]   960/1,248             124,512                         nl_16_nl   |                                    Pad_/Conv2D_[19, 20]   
       nl_17_nl (Nonlinearity, DEPTHWISE_CONV_2D)       [b:1,h:12,w:12,c:96]                          13,824                        conv2d_17   |                -13,824(-100.0%)    
------ ------------------------------------------------ ---------------------- ----------------- ----------- -------------------------------- --- -------------- ------------------- ---------------------- 
18     conv2d_18 (Conv2D, CONV_2D)                      [b:1,h:12,w:12,c:16]   1,552/1,600           221,200                         nl_17_nl   |                                    Conv2D_[21]            
------ ------------------------------------------------ ---------------------- ----------------- ----------- -------------------------------- --- -------------- ------------------- ---------------------- 
19     eltwise_19 (Eltwise, ADD)                        [b:1,h:12,w:12,c:16]                           2,304                        conv2d_15   |                                    Eltwise/add_[22]       
                                                                                                                                    conv2d_18   | 
------ ------------------------------------------------ ---------------------- ----------------- ----------- -------------------------------- --- -------------- ------------------- ---------------------- 
20     conv2d_20 (Conv2D, CONV_2D)                      [b:1,h:12,w:12,c:96]   1,632/1,920           221,280                       eltwise_19   |                                    Conv2D_[23]            
       nl_20_nl (Nonlinearity, CONV_2D)                 [b:1,h:12,w:12,c:96]                          13,824                        conv2d_20   |                -13,824(-100.0%)    
------ ------------------------------------------------ ---------------------- ----------------- ----------- -------------------------------- --- -------------- ------------------- ---------------------- 
21     conv2d_21 (Conv2D, DEPTHWISE_CONV_2D)            [b:1,h:12,w:12,c:96]   960/1,248             124,512                         nl_20_nl   |                                    Pad_/Conv2D_[24, 25]   
       nl_21_nl (Nonlinearity, DEPTHWISE_CONV_2D)       [b:1,h:12,w:12,c:96]                          13,824                        conv2d_21   |                -13,824(-100.0%)    
------ ------------------------------------------------ ---------------------- ----------------- ----------- -------------------------------- --- -------------- ------------------- ---------------------- 
22     conv2d_22 (Conv2D, CONV_2D)                      [b:1,h:12,w:12,c:16]   1,552/1,600           221,200                         nl_21_nl   |                                    Conv2D_[26]            
------ ------------------------------------------------ ---------------------- ----------------- ----------- -------------------------------- --- -------------- ------------------- ---------------------- 
23     eltwise_23 (Eltwise, ADD)                        [b:1,h:12,w:12,c:16]                           2,304                       eltwise_19   |                                    Eltwise/add_[27]       
                                                                                                                                    conv2d_22   | 
------ ------------------------------------------------ ---------------------- ----------------- ----------- -------------------------------- --- -------------- ------------------- ---------------------- 
24     conv2d_24 (Conv2D, CONV_2D)                      [b:1,h:12,w:12,c:96]   1,632/1,920           221,280                       eltwise_23   |                                    Conv2D_[28]            
       nl_24_nl (Nonlinearity, CONV_2D)                 [b:1,h:12,w:12,c:96]                          13,824                        conv2d_24   |                -13,824(-100.0%)    
------ ------------------------------------------------ ---------------------- ----------------- ----------- -------------------------------- --- -------------- ------------------- ---------------------- 
25     pad_25 (Pad, PAD)                                [b:1,h:13,w:13,c:96]                                                         nl_24_nl   |                                    Pad_[29]               
------ ------------------------------------------------ ---------------------- ----------------- ----------- -------------------------------- --- -------------- ------------------- ---------------------- 
26     conv2d_26 (Conv2D, DEPTHWISE_CONV_2D)            [b:1,h:6,w:6,c:96]     960/1,248              31,200                           pad_25   |                                    Conv2D_[30]            
       nl_26_nl (Nonlinearity, DEPTHWISE_CONV_2D)       [b:1,h:6,w:6,c:96]                             3,456                        conv2d_26   |                -3,456(-100.0%)     
------ ------------------------------------------------ ---------------------- ----------------- ----------- -------------------------------- --- -------------- ------------------- ---------------------- 
27     conv2d_27 (Conv2D, CONV_2D)                      [b:1,h:6,w:6,c:24]     2,328/2,400            82,968                         nl_26_nl   |                                    Conv2D_[31]            
------ ------------------------------------------------ ---------------------- ----------------- ----------- -------------------------------- --- -------------- ------------------- ---------------------- 
28     conv2d_28 (Conv2D, CONV_2D)                      [b:1,h:6,w:6,c:144]    3,600/4,032           124,560                        conv2d_27   |                                    Conv2D_[32]            
       nl_28_nl (Nonlinearity, CONV_2D)                 [b:1,h:6,w:6,c:144]                            5,184                        conv2d_28   |                -5,184(-100.0%)     
------ ------------------------------------------------ ---------------------- ----------------- ----------- -------------------------------- --- -------------- ------------------- ---------------------- 
29     conv2d_29 (Conv2D, DEPTHWISE_CONV_2D)            [b:1,h:6,w:6,c:144]    1,440/1,872            46,800                         nl_28_nl   |                                    Pad_/Conv2D_[33, 34]   
       nl_29_nl (Nonlinearity, DEPTHWISE_CONV_2D)       [b:1,h:6,w:6,c:144]                            5,184                        conv2d_29   |                -5,184(-100.0%)     
------ ------------------------------------------------ ---------------------- ----------------- ----------- -------------------------------- --- -------------- ------------------- ---------------------- 
30     conv2d_30 (Conv2D, CONV_2D)                      [b:1,h:6,w:6,c:24]     3,480/3,552           124,440                         nl_29_nl   |                                    Conv2D_[35]            
------ ------------------------------------------------ ---------------------- ----------------- ----------- -------------------------------- --- -------------- ------------------- ---------------------- 
31     eltwise_31 (Eltwise, ADD)                        [b:1,h:6,w:6,c:24]                               864                        conv2d_27   |                                    Eltwise/add_[36]       
                                                                                                                                    conv2d_30   | 
------ ------------------------------------------------ ---------------------- ----------------- ----------- -------------------------------- --- -------------- ------------------- ---------------------- 
32     conv2d_32 (Conv2D, CONV_2D)                      [b:1,h:6,w:6,c:144]    3,600/4,032           124,560                       eltwise_31   |                                    Conv2D_[37]            
       nl_32_nl (Nonlinearity, CONV_2D)                 [b:1,h:6,w:6,c:144]                            5,184                        conv2d_32   |                -5,184(-100.0%)     
------ ------------------------------------------------ ---------------------- ----------------- ----------- -------------------------------- --- -------------- ------------------- ---------------------- 
33     conv2d_33 (Conv2D, DEPTHWISE_CONV_2D)            [b:1,h:6,w:6,c:144]    1,440/1,872            46,800                         nl_32_nl   |                                    Pad_/Conv2D_[38, 39]   
       nl_33_nl (Nonlinearity, DEPTHWISE_CONV_2D)       [b:1,h:6,w:6,c:144]                            5,184                        conv2d_33   |                -5,184(-100.0%)     
------ ------------------------------------------------ ---------------------- ----------------- ----------- -------------------------------- --- -------------- ------------------- ---------------------- 
34     conv2d_34 (Conv2D, CONV_2D)                      [b:1,h:6,w:6,c:24]     3,480/3,552           124,440                         nl_33_nl   |                                    Conv2D_[40]            
------ ------------------------------------------------ ---------------------- ----------------- ----------- -------------------------------- --- -------------- ------------------- ---------------------- 
35     eltwise_35 (Eltwise, ADD)                        [b:1,h:6,w:6,c:24]                               864                       eltwise_31   |                                    Eltwise/add_[41]       
                                                                                                                                    conv2d_34   | 
------ ------------------------------------------------ ---------------------- ----------------- ----------- -------------------------------- --- -------------- ------------------- ---------------------- 
36     conv2d_36 (Conv2D, CONV_2D)                      [b:1,h:6,w:6,c:144]    3,600/4,032           124,560                       eltwise_35   |                                    Conv2D_[42]            
       nl_36_nl (Nonlinearity, CONV_2D)                 [b:1,h:6,w:6,c:144]                            5,184                        conv2d_36   |                -5,184(-100.0%)     
------ ------------------------------------------------ ---------------------- ----------------- ----------- -------------------------------- --- -------------- ------------------- ---------------------- 
37     conv2d_37 (Conv2D, DEPTHWISE_CONV_2D)            [b:1,h:6,w:6,c:144]    1,440/1,872            46,800                         nl_36_nl   |                                    Pad_/Conv2D_[43, 44]   
       nl_37_nl (Nonlinearity, DEPTHWISE_CONV_2D)       [b:1,h:6,w:6,c:144]                            5,184                        conv2d_37   |                -5,184(-100.0%)     
------ ------------------------------------------------ ---------------------- ----------------- ----------- -------------------------------- --- -------------- ------------------- ---------------------- 
38     conv2d_38 (Conv2D, CONV_2D)                      [b:1,h:6,w:6,c:24]     3,480/3,552           124,440                         nl_37_nl   |                                    Conv2D_[45]            
------ ------------------------------------------------ ---------------------- ----------------- ----------- -------------------------------- --- -------------- ------------------- ---------------------- 
39     eltwise_39 (Eltwise, ADD)                        [b:1,h:6,w:6,c:24]                               864                       eltwise_35   |                                    Eltwise/add_[46]       
                                                                                                                                    conv2d_38   | 
------ ------------------------------------------------ ---------------------- ----------------- ----------- -------------------------------- --- -------------- ------------------- ---------------------- 
40     conv2d_40 (Conv2D, CONV_2D)                      [b:1,h:6,w:6,c:144]    3,600/4,032           124,560                       eltwise_39   |                                    Conv2D_[47]            
       nl_40_nl (Nonlinearity, CONV_2D)                 [b:1,h:6,w:6,c:144]                            5,184                        conv2d_40   |                -5,184(-100.0%)     
------ ------------------------------------------------ ---------------------- ----------------- ----------- -------------------------------- --- -------------- ------------------- ---------------------- 
41     conv2d_41 (Conv2D, DEPTHWISE_CONV_2D)            [b:1,h:6,w:6,c:144]    1,440/1,872            46,800                         nl_40_nl   |                                    Pad_/Conv2D_[48, 49]   
       nl_41_nl (Nonlinearity, DEPTHWISE_CONV_2D)       [b:1,h:6,w:6,c:144]                            5,184                        conv2d_41   |                -5,184(-100.0%)     
------ ------------------------------------------------ ---------------------- ----------------- ----------- -------------------------------- --- -------------- ------------------- ---------------------- 
42     conv2d_42 (Conv2D, CONV_2D)                      [b:1,h:6,w:6,c:32]     4,640/4,736           165,920                         nl_41_nl   |                                    Conv2D_[50]            
------ ------------------------------------------------ ---------------------- ----------------- ----------- -------------------------------- --- -------------- ------------------- ---------------------- 
43     conv2d_43 (Conv2D, CONV_2D)                      [b:1,h:6,w:6,c:192]    6,336/6,912           221,376                        conv2d_42   |                                    Conv2D_[51]            
       nl_43_nl (Nonlinearity, CONV_2D)                 [b:1,h:6,w:6,c:192]                            6,912                        conv2d_43   |                -6,912(-100.0%)     
------ ------------------------------------------------ ---------------------- ----------------- ----------- -------------------------------- --- -------------- ------------------- ---------------------- 
44     conv2d_44 (Conv2D, DEPTHWISE_CONV_2D)            [b:1,h:6,w:6,c:192]    1,920/2,496            62,400                         nl_43_nl   |                                    Pad_/Conv2D_[52, 53]   
       nl_44_nl (Nonlinearity, DEPTHWISE_CONV_2D)       [b:1,h:6,w:6,c:192]                            6,912                        conv2d_44   |                -6,912(-100.0%)     
------ ------------------------------------------------ ---------------------- ----------------- ----------- -------------------------------- --- -------------- ------------------- ---------------------- 
45     conv2d_45 (Conv2D, CONV_2D)                      [b:1,h:6,w:6,c:32]     6,176/6,272           221,216                         nl_44_nl   |                                    Conv2D_[54]            
------ ------------------------------------------------ ---------------------- ----------------- ----------- -------------------------------- --- -------------- ------------------- ---------------------- 
46     eltwise_46 (Eltwise, ADD)                        [b:1,h:6,w:6,c:32]                             1,152                        conv2d_42   |                                    Eltwise/add_[55]       
                                                                                                                                    conv2d_45   | 
------ ------------------------------------------------ ---------------------- ----------------- ----------- -------------------------------- --- -------------- ------------------- ---------------------- 
47     conv2d_47 (Conv2D, CONV_2D)                      [b:1,h:6,w:6,c:192]    6,336/6,912           221,376                       eltwise_46   |                                    Conv2D_[56]            
       nl_47_nl (Nonlinearity, CONV_2D)                 [b:1,h:6,w:6,c:192]                            6,912                        conv2d_47   |                -6,912(-100.0%)     
------ ------------------------------------------------ ---------------------- ----------------- ----------- -------------------------------- --- -------------- ------------------- ---------------------- 
48     conv2d_48 (Conv2D, DEPTHWISE_CONV_2D)            [b:1,h:6,w:6,c:192]    1,920/2,496            62,400                         nl_47_nl   |                                    Pad_/Conv2D_[57, 58]   
       nl_48_nl (Nonlinearity, DEPTHWISE_CONV_2D)       [b:1,h:6,w:6,c:192]                            6,912                        conv2d_48   |                -6,912(-100.0%)     
------ ------------------------------------------------ ---------------------- ----------------- ----------- -------------------------------- --- -------------- ------------------- ---------------------- 
49     conv2d_49 (Conv2D, CONV_2D)                      [b:1,h:6,w:6,c:32]     6,176/6,272           221,216                         nl_48_nl   |                                    Conv2D_[59]            
------ ------------------------------------------------ ---------------------- ----------------- ----------- -------------------------------- --- -------------- ------------------- ---------------------- 
50     eltwise_50 (Eltwise, ADD)                        [b:1,h:6,w:6,c:32]                             1,152                       eltwise_46   |                                    Eltwise/add_[60]       
                                                                                                                                    conv2d_49   | 
------ ------------------------------------------------ ---------------------- ----------------- ----------- -------------------------------- --- -------------- ------------------- ---------------------- 
51     conv2d_51 (Conv2D, CONV_2D)                      [b:1,h:6,w:6,c:192]    6,336/6,912           221,376                       eltwise_50   |                                    Conv2D_[61]            
       nl_51_nl (Nonlinearity, CONV_2D)                 [b:1,h:6,w:6,c:192]                            6,912                        conv2d_51   |                -6,912(-100.0%)     
------ ------------------------------------------------ ---------------------- ----------------- ----------- -------------------------------- --- -------------- ------------------- ---------------------- 
52     pad_52 (Pad, PAD)                                [b:1,h:7,w:7,c:192]                                                          nl_51_nl   |                                    Pad_[62]               
------ ------------------------------------------------ ---------------------- ----------------- ----------- -------------------------------- --- -------------- ------------------- ---------------------- 
53     conv2d_53 (Conv2D, DEPTHWISE_CONV_2D)            [b:1,h:3,w:3,c:192]    1,920/2,496            15,744                           pad_52   |                                    Conv2D_[63]            
       nl_53_nl (Nonlinearity, DEPTHWISE_CONV_2D)       [b:1,h:3,w:3,c:192]                            1,728                        conv2d_53   |                -1,728(-100.0%)     
------ ------------------------------------------------ ---------------------- ----------------- ----------- -------------------------------- --- -------------- ------------------- ---------------------- 
54     conv2d_54 (Conv2D, CONV_2D)                      [b:1,h:3,w:3,c:56]     10,808/10,976          96,824                         nl_53_nl   |                                    Conv2D_[64]            
------ ------------------------------------------------ ---------------------- ----------------- ----------- -------------------------------- --- -------------- ------------------- ---------------------- 
55     conv2d_55 (Conv2D, CONV_2D)                      [b:1,h:3,w:3,c:336]    19,152/20,160         169,680                        conv2d_54   |                                    Conv2D_[65]            
       nl_55_nl (Nonlinearity, CONV_2D)                 [b:1,h:3,w:3,c:336]                            3,024                        conv2d_55   |                -3,024(-100.0%)     
------ ------------------------------------------------ ---------------------- ----------------- ----------- -------------------------------- --- -------------- ------------------- ---------------------- 
56     conv2d_56 (Conv2D, DEPTHWISE_CONV_2D)            [b:1,h:3,w:3,c:336]    3,360/4,368            27,552                         nl_55_nl   |                                    Pad_/Conv2D_[66, 67]   
       nl_56_nl (Nonlinearity, DEPTHWISE_CONV_2D)       [b:1,h:3,w:3,c:336]                            3,024                        conv2d_56   |                -3,024(-100.0%)     
------ ------------------------------------------------ ---------------------- ----------------- ----------- -------------------------------- --- -------------- ------------------- ---------------------- 
57     conv2d_57 (Conv2D, CONV_2D)                      [b:1,h:3,w:3,c:56]     18,872/19,040         169,400                         nl_56_nl   |                                    Conv2D_[68]            
------ ------------------------------------------------ ---------------------- ----------------- ----------- -------------------------------- --- -------------- ------------------- ---------------------- 
58     eltwise_58 (Eltwise, ADD)                        [b:1,h:3,w:3,c:56]                               504                        conv2d_54   |                                    Eltwise/add_[69]       
                                                                                                                                    conv2d_57   | 
------ ------------------------------------------------ ---------------------- ----------------- ----------- -------------------------------- --- -------------- ------------------- ---------------------- 
59     conv2d_59 (Conv2D, CONV_2D)                      [b:1,h:3,w:3,c:336]    19,152/20,160         169,680                       eltwise_58   |                                    Conv2D_[70]            
       nl_59_nl (Nonlinearity, CONV_2D)                 [b:1,h:3,w:3,c:336]                            3,024                        conv2d_59   |                -3,024(-100.0%)     
------ ------------------------------------------------ ---------------------- ----------------- ----------- -------------------------------- --- -------------- ------------------- ---------------------- 
60     conv2d_60 (Conv2D, DEPTHWISE_CONV_2D)            [b:1,h:3,w:3,c:336]    3,360/4,368            27,552                         nl_59_nl   |                                    Pad_/Conv2D_[71, 72]   
       nl_60_nl (Nonlinearity, DEPTHWISE_CONV_2D)       [b:1,h:3,w:3,c:336]                            3,024                        conv2d_60   |                -3,024(-100.0%)     
------ ------------------------------------------------ ---------------------- ----------------- ----------- -------------------------------- --- -------------- ------------------- ---------------------- 
61     conv2d_61 (Conv2D, CONV_2D)                      [b:1,h:3,w:3,c:56]     18,872/19,040         169,400                         nl_60_nl   |                                    Conv2D_[73]            
------ ------------------------------------------------ ---------------------- ----------------- ----------- -------------------------------- --- -------------- ------------------- ---------------------- 
62     eltwise_62 (Eltwise, ADD)                        [b:1,h:3,w:3,c:56]                               504                       eltwise_58   |                                    Eltwise/add_[74]       
                                                                                                                                    conv2d_61   | 
------ ------------------------------------------------ ---------------------- ----------------- ----------- -------------------------------- --- -------------- ------------------- ---------------------- 
63     conv2d_63 (Conv2D, CONV_2D)                      [b:1,h:3,w:3,c:336]    19,152/20,160         169,680                       eltwise_62   |                                    Conv2D_[75]            
       nl_63_nl (Nonlinearity, CONV_2D)                 [b:1,h:3,w:3,c:336]                            3,024                        conv2d_63   |                -3,024(-100.0%)     
------ ------------------------------------------------ ---------------------- ----------------- ----------- -------------------------------- --- -------------- ------------------- ---------------------- 
64     conv2d_64 (Conv2D, DEPTHWISE_CONV_2D)            [b:1,h:3,w:3,c:336]    3,360/4,368            27,552                         nl_63_nl   |                                    Pad_/Conv2D_[76, 77]   
       nl_64_nl (Nonlinearity, DEPTHWISE_CONV_2D)       [b:1,h:3,w:3,c:336]                            3,024                        conv2d_64   |                -3,024(-100.0%)     
------ ------------------------------------------------ ---------------------- ----------------- ----------- -------------------------------- --- -------------- ------------------- ---------------------- 
65     conv2d_65 (Conv2D, CONV_2D)                      [b:1,h:3,w:3,c:112]    37,744/38,080         338,800                         nl_64_nl   |                                    Conv2D_[78]            
------ ------------------------------------------------ ---------------------- ----------------- ----------- -------------------------------- --- -------------- ------------------- ---------------------- 
66     conv2d_66 (Conv2D, CONV_2D)                      [b:1,h:3,w:3,c:1280]   144,640/148,480     1,291,520                        conv2d_65   |                                    Conv2D_[79]            
       nl_66_nl (Nonlinearity, CONV_2D)                 [b:1,h:3,w:3,c:1280]                          11,520                        conv2d_66   |                -11,520(-100.0%)    
------ ------------------------------------------------ ---------------------- ----------------- ----------- -------------------------------- --- -------------- ------------------- ---------------------- 
67     pool_67 (Pool, MEAN)                             [b:1,h:1,w:1,c:1280]                          11,520                         nl_66_nl   |                                    Pool_[80]              
       reshape_67_reshape (Reshape, MEAN)               [b:1,c:1280]                                                                  pool_67   |                                    
------ ------------------------------------------------ ---------------------- ----------------- ----------- -------------------------------- --- -------------- ------------------- ---------------------- 
68     MobileNetV2_dense_MatMul (Placeholder, )         [b:15,c:1280]          19,200/19,200                                                    | +60(+0.3%)     +19,215(+100.0%)    Dense_[81]             
       MobileNetV2_dense_..VariableOp (Placeholder, )   [b:15]                 15/60                                                            | -60(-100.0%)                       
       gemm_68 (Gemm, FULLY_CONNECTED)                  [b:1,c:15]                                    19,215               reshape_67_reshape   |                -19,215(-100.0%)    
                                                                                                                     MobileNetV2_dense_MatMul   | 
                                                                                                               MobileNetV2_dense_..VariableOp   | 
------ ------------------------------------------------ ---------------------- ----------------- ----------- -------------------------------- --- -------------- ------------------- ---------------------- 
69     nl_69 (Nonlinearity, SOFTMAX)                    [b:1,c:15]                                       225                          gemm_68   |                                    Nonlinearity_[82]      
------ ------------------------------------------------ ---------------------- ----------------- ----------- -------------------------------- --- -------------- ------------------- ---------------------- 
70     conversion_70 (Conversion, DEQUANTIZE)           [b:1,c:15]                                        30                            nl_69   |                                    Conversion_[o][83]     
------ ------------------------------------------------ ---------------------- ----------------- ----------- -------------------------------- --- -------------- ------------------- ---------------------- 
model/c-model: macc=11,244,398/10,762,574 -481,824(-4.3%) weights=429,468/429,468  activations=--/129,536 io=--/0



Generated C-graph summary
------------------------------------------------------------------------------------------------------------------------
model name            : uint8float_mobilenetV20_35_acc0_972
c-name                : vehicle_detector
c-node #              : 84
c-array #             : 245
activations size      : 129536 (1 segment)
weights size          : 429468 (1 segment)
macc                  : 10762574
inputs                : ['serving_default_mobilenetv2_0_35_96_input0_output']
outputs               : ['conversion_70_output']

C-Arrays (245)
------ --------------------------------------------------- --------------- ------------------------- ----------- --------- 
c_id   name (*_array)                                      item/size       domain/mem-pool           c-type      comment   
------ --------------------------------------------------- --------------- ------------------------- ----------- --------- 
0      conv2d_10_bias                                      8/32            weights/weights           const s32             
1      conv2d_10_output                                    4608/4608       activations/**default**   s8                    
2      conv2d_10_scratch0                                  272/272         activations/**default**   s8                    
3      conv2d_10_weights                                   384/384         weights/weights           const s8              
4      conv2d_12_bias                                      48/192          weights/weights           const s32             
5      conv2d_12_output                                    27648/27648     activations/**default**   s8                    
6      conv2d_12_scratch0                                  512/512         activations/**default**   s8                    
7      conv2d_12_weights                                   384/384         weights/weights           const s8              
8      conv2d_14_bias                                      48/192          weights/weights           const s32             
9      conv2d_14_output                                    6912/6912       activations/**default**   s8                    
10     conv2d_14_pad_before_output                         30000/30000     activations/**default**   s8                    
11     conv2d_14_scratch0                                  1777/1777       activations/**default**   s8                    
12     conv2d_14_weights                                   432/432         weights/weights           const s8              
13     conv2d_15_bias                                      16/64           weights/weights           const s32             
14     conv2d_15_output                                    2304/2304       activations/**default**   s8                    
15     conv2d_15_scratch0                                  352/352         activations/**default**   s8                    
16     conv2d_15_weights                                   768/768         weights/weights           const s8              
17     conv2d_16_bias                                      96/384          weights/weights           const s32             
18     conv2d_16_output                                    13824/13824     activations/**default**   s8                    
19     conv2d_16_scratch0                                  1024/1024       activations/**default**   s8                    
20     conv2d_16_weights                                   1536/1536       weights/weights           const s8              
21     conv2d_17_bias                                      96/384          weights/weights           const s32             
22     conv2d_17_output                                    13824/13824     activations/**default**   s8                    
23     conv2d_17_pad_before_output                         18816/18816     activations/**default**   s8                    
24     conv2d_17_scratch0                                  3553/3553       activations/**default**   s8                    
25     conv2d_17_weights                                   864/864         weights/weights           const s8              
26     conv2d_18_bias                                      16/64           weights/weights           const s32             
27     conv2d_18_output                                    2304/2304       activations/**default**   s8                    
28     conv2d_18_scratch0                                  544/544         activations/**default**   s8                    
29     conv2d_18_weights                                   1536/1536       weights/weights           const s8              
30     conv2d_1_bias                                       16/64           weights/weights           const s32             
31     conv2d_1_output                                     36864/36864     activations/**default**   s8                    
32     conv2d_1_scratch0                                   1196/1196       activations/**default**   s8                    
33     conv2d_1_weights                                    432/432         weights/weights           const s8              
34     conv2d_20_bias                                      96/384          weights/weights           const s32             
35     conv2d_20_output                                    13824/13824     activations/**default**   s8                    
36     conv2d_20_scratch0                                  1024/1024       activations/**default**   s8                    
37     conv2d_20_weights                                   1536/1536       weights/weights           const s8              
38     conv2d_21_bias                                      96/384          weights/weights           const s32             
39     conv2d_21_output                                    13824/13824     activations/**default**   s8                    
40     conv2d_21_pad_before_output                         18816/18816     activations/**default**   s8                    
41     conv2d_21_scratch0                                  3553/3553       activations/**default**   s8                    
42     conv2d_21_weights                                   864/864         weights/weights           const s8              
43     conv2d_22_bias                                      16/64           weights/weights           const s32             
44     conv2d_22_output                                    2304/2304       activations/**default**   s8                    
45     conv2d_22_scratch0                                  544/544         activations/**default**   s8                    
46     conv2d_22_weights                                   1536/1536       weights/weights           const s8              
47     conv2d_24_bias                                      96/384          weights/weights           const s32             
48     conv2d_24_output                                    13824/13824     activations/**default**   s8                    
49     conv2d_24_scratch0                                  1024/1024       activations/**default**   s8                    
50     conv2d_24_weights                                   1536/1536       weights/weights           const s8              
51     conv2d_26_bias                                      96/384          weights/weights           const s32             
52     conv2d_26_output                                    3456/3456       activations/**default**   s8                    
53     conv2d_26_pad_before_output                         16224/16224     activations/**default**   s8                    
54     conv2d_26_scratch0                                  3553/3553       activations/**default**   s8                    
55     conv2d_26_weights                                   864/864         weights/weights           const s8              
56     conv2d_27_bias                                      24/96           weights/weights           const s32             
57     conv2d_27_output                                    864/864         activations/**default**   s8                    
58     conv2d_27_scratch0                                  624/624         activations/**default**   s8                    
59     conv2d_27_weights                                   2304/2304       weights/weights           const s8              
60     conv2d_28_bias                                      144/576         weights/weights           const s32             
61     conv2d_28_output                                    5184/5184       activations/**default**   s8                    
62     conv2d_28_scratch0                                  1536/1536       activations/**default**   s8                    
63     conv2d_28_weights                                   3456/3456       weights/weights           const s8              
64     conv2d_29_bias                                      144/576         weights/weights           const s32             
65     conv2d_29_output                                    5184/5184       activations/**default**   s8                    
66     conv2d_29_pad_before_output                         9216/9216       activations/**default**   s8                    
67     conv2d_29_scratch0                                  5329/5329       activations/**default**   s8                    
68     conv2d_29_weights                                   1296/1296       weights/weights           const s8              
69     conv2d_2_bias                                       16/64           weights/weights           const s32             
70     conv2d_2_output                                     36864/36864     activations/**default**   s8                    
71     conv2d_2_pad_before_output                          40000/40000     activations/**default**   s8                    
72     conv2d_2_scratch0                                   593/593         activations/**default**   s8                    
73     conv2d_2_weights                                    144/144         weights/weights           const s8              
74     conv2d_30_bias                                      24/96           weights/weights           const s32             
75     conv2d_30_output                                    864/864         activations/**default**   s8                    
76     conv2d_30_scratch0                                  816/816         activations/**default**   s8                    
77     conv2d_30_weights                                   3456/3456       weights/weights           const s8              
78     conv2d_32_bias                                      144/576         weights/weights           const s32             
79     conv2d_32_output                                    5184/5184       activations/**default**   s8                    
80     conv2d_32_scratch0                                  1536/1536       activations/**default**   s8                    
81     conv2d_32_weights                                   3456/3456       weights/weights           const s8              
82     conv2d_33_bias                                      144/576         weights/weights           const s32             
83     conv2d_33_output                                    5184/5184       activations/**default**   s8                    
84     conv2d_33_pad_before_output                         9216/9216       activations/**default**   s8                    
85     conv2d_33_scratch0                                  5329/5329       activations/**default**   s8                    
86     conv2d_33_weights                                   1296/1296       weights/weights           const s8              
87     conv2d_34_bias                                      24/96           weights/weights           const s32             
88     conv2d_34_output                                    864/864         activations/**default**   s8                    
89     conv2d_34_scratch0                                  816/816         activations/**default**   s8                    
90     conv2d_34_weights                                   3456/3456       weights/weights           const s8              
91     conv2d_36_bias                                      144/576         weights/weights           const s32             
92     conv2d_36_output                                    5184/5184       activations/**default**   s8                    
93     conv2d_36_scratch0                                  1536/1536       activations/**default**   s8                    
94     conv2d_36_weights                                   3456/3456       weights/weights           const s8              
95     conv2d_37_bias                                      144/576         weights/weights           const s32             
96     conv2d_37_output                                    5184/5184       activations/**default**   s8                    
97     conv2d_37_pad_before_output                         9216/9216       activations/**default**   s8                    
98     conv2d_37_scratch0                                  5329/5329       activations/**default**   s8                    
99     conv2d_37_weights                                   1296/1296       weights/weights           const s8              
100    conv2d_38_bias                                      24/96           weights/weights           const s32             
101    conv2d_38_output                                    864/864         activations/**default**   s8                    
102    conv2d_38_scratch0                                  816/816         activations/**default**   s8                    
103    conv2d_38_weights                                   3456/3456       weights/weights           const s8              
104    conv2d_3_bias                                       8/32            weights/weights           const s32             
105    conv2d_3_output                                     18432/18432     activations/**default**   s8                    
106    conv2d_3_scratch0                                   144/144         activations/**default**   s8                    
107    conv2d_3_weights                                    128/128         weights/weights           const s8              
108    conv2d_40_bias                                      144/576         weights/weights           const s32             
109    conv2d_40_output                                    5184/5184       activations/**default**   s8                    
110    conv2d_40_scratch0                                  1536/1536       activations/**default**   s8                    
111    conv2d_40_weights                                   3456/3456       weights/weights           const s8              
112    conv2d_41_bias                                      144/576         weights/weights           const s32             
113    conv2d_41_output                                    5184/5184       activations/**default**   s8                    
114    conv2d_41_pad_before_output                         9216/9216       activations/**default**   s8                    
115    conv2d_41_scratch0                                  5329/5329       activations/**default**   s8                    
116    conv2d_41_weights                                   1296/1296       weights/weights           const s8              
117    conv2d_42_bias                                      32/128          weights/weights           const s32             
118    conv2d_42_output                                    1152/1152       activations/**default**   s8                    
119    conv2d_42_scratch0                                  896/896         activations/**default**   s8                    
120    conv2d_42_weights                                   4608/4608       weights/weights           const s8              
121    conv2d_43_bias                                      192/768         weights/weights           const s32             
122    conv2d_43_output                                    6912/6912       activations/**default**   s8                    
123    conv2d_43_scratch0                                  2048/2048       activations/**default**   s8                    
124    conv2d_43_weights                                   6144/6144       weights/weights           const s8              
125    conv2d_44_bias                                      192/768         weights/weights           const s32             
126    conv2d_44_output                                    6912/6912       activations/**default**   s8                    
127    conv2d_44_pad_before_output                         12288/12288     activations/**default**   s8                    
128    conv2d_44_scratch0                                  7105/7105       activations/**default**   s8                    
129    conv2d_44_weights                                   1728/1728       weights/weights           const s8              
130    conv2d_45_bias                                      32/128          weights/weights           const s32             
131    conv2d_45_output                                    1152/1152       activations/**default**   s8                    
132    conv2d_45_scratch0                                  1088/1088       activations/**default**   s8                    
133    conv2d_45_weights                                   6144/6144       weights/weights           const s8              
134    conv2d_47_bias                                      192/768         weights/weights           const s32             
135    conv2d_47_output                                    6912/6912       activations/**default**   s8                    
136    conv2d_47_scratch0                                  2048/2048       activations/**default**   s8                    
137    conv2d_47_weights                                   6144/6144       weights/weights           const s8              
138    conv2d_48_bias                                      192/768         weights/weights           const s32             
139    conv2d_48_output                                    6912/6912       activations/**default**   s8                    
140    conv2d_48_pad_before_output                         12288/12288     activations/**default**   s8                    
141    conv2d_48_scratch0                                  7105/7105       activations/**default**   s8                    
142    conv2d_48_weights                                   1728/1728       weights/weights           const s8              
143    conv2d_49_bias                                      32/128          weights/weights           const s32             
144    conv2d_49_output                                    1152/1152       activations/**default**   s8                    
145    conv2d_49_scratch0                                  1088/1088       activations/**default**   s8                    
146    conv2d_49_weights                                   6144/6144       weights/weights           const s8              
147    conv2d_4_bias                                       48/192          weights/weights           const s32             
148    conv2d_4_output                                     110592/110592   activations/**default**   s8                    
149    conv2d_4_scratch0                                   512/512         activations/**default**   s8                    
150    conv2d_4_weights                                    384/384         weights/weights           const s8              
151    conv2d_51_bias                                      192/768         weights/weights           const s32             
152    conv2d_51_output                                    6912/6912       activations/**default**   s8                    
153    conv2d_51_scratch0                                  2048/2048       activations/**default**   s8                    
154    conv2d_51_weights                                   6144/6144       weights/weights           const s8              
155    conv2d_53_bias                                      192/768         weights/weights           const s32             
156    conv2d_53_output                                    1728/1728       activations/**default**   s8                    
157    conv2d_53_pad_before_output                         9408/9408       activations/**default**   s8                    
158    conv2d_53_scratch0                                  7105/7105       activations/**default**   s8                    
159    conv2d_53_weights                                   1728/1728       weights/weights           const s8              
160    conv2d_54_bias                                      56/224          weights/weights           const s32             
161    conv2d_54_output                                    504/504         activations/**default**   s8                    
162    conv2d_54_scratch0                                  1328/1328       activations/**default**   s8                    
163    conv2d_54_weights                                   10752/10752     weights/weights           const s8              
164    conv2d_55_bias                                      336/1344        weights/weights           const s32             
165    conv2d_55_output                                    3024/3024       activations/**default**   s8                    
166    conv2d_55_scratch0                                  3584/3584       activations/**default**   s8                    
167    conv2d_55_weights                                   18816/18816     weights/weights           const s8              
168    conv2d_56_bias                                      336/1344        weights/weights           const s32             
169    conv2d_56_output                                    3024/3024       activations/**default**   s8                    
170    conv2d_56_pad_before_output                         8400/8400       activations/**default**   s8                    
171    conv2d_56_scratch0                                  12433/12433     activations/**default**   s8                    
172    conv2d_56_weights                                   3024/3024       weights/weights           const s8              
173    conv2d_57_bias                                      56/224          weights/weights           const s32             
174    conv2d_57_output                                    504/504         activations/**default**   s8                    
175    conv2d_57_scratch0                                  1904/1904       activations/**default**   s8                    
176    conv2d_57_weights                                   18816/18816     weights/weights           const s8              
177    conv2d_59_bias                                      336/1344        weights/weights           const s32             
178    conv2d_59_output                                    3024/3024       activations/**default**   s8                    
179    conv2d_59_scratch0                                  3584/3584       activations/**default**   s8                    
180    conv2d_59_weights                                   18816/18816     weights/weights           const s8              
181    conv2d_60_bias                                      336/1344        weights/weights           const s32             
182    conv2d_60_output                                    3024/3024       activations/**default**   s8                    
183    conv2d_60_pad_before_output                         8400/8400       activations/**default**   s8                    
184    conv2d_60_scratch0                                  12433/12433     activations/**default**   s8                    
185    conv2d_60_weights                                   3024/3024       weights/weights           const s8              
186    conv2d_61_bias                                      56/224          weights/weights           const s32             
187    conv2d_61_output                                    504/504         activations/**default**   s8                    
188    conv2d_61_scratch0                                  1904/1904       activations/**default**   s8                    
189    conv2d_61_weights                                   18816/18816     weights/weights           const s8              
190    conv2d_63_bias                                      336/1344        weights/weights           const s32             
191    conv2d_63_output                                    3024/3024       activations/**default**   s8                    
192    conv2d_63_scratch0                                  3584/3584       activations/**default**   s8                    
193    conv2d_63_weights                                   18816/18816     weights/weights           const s8              
194    conv2d_64_bias                                      336/1344        weights/weights           const s32             
195    conv2d_64_output                                    3024/3024       activations/**default**   s8                    
196    conv2d_64_pad_before_output                         8400/8400       activations/**default**   s8                    
197    conv2d_64_scratch0                                  12433/12433     activations/**default**   s8                    
198    conv2d_64_weights                                   3024/3024       weights/weights           const s8              
199    conv2d_65_bias                                      112/448         weights/weights           const s32             
200    conv2d_65_output                                    1008/1008       activations/**default**   s8                    
201    conv2d_65_scratch0                                  2464/2464       activations/**default**   s8                    
202    conv2d_65_weights                                   37632/37632     weights/weights           const s8              
203    conv2d_66_bias                                      1280/5120       weights/weights           const s32             
204    conv2d_66_output                                    11520/11520     activations/**default**   s8                    
205    conv2d_66_scratch0                                  13248/13248     activations/**default**   s8                    
206    conv2d_66_weights                                   143360/143360   weights/weights           const s8              
207    conv2d_6_bias                                       48/192          weights/weights           const s32             
208    conv2d_6_output                                     27648/27648     activations/**default**   s8                    
209    conv2d_6_pad_before_output                          115248/115248   activations/**default**   s8                    
210    conv2d_6_scratch0                                   1777/1777       activations/**default**   s8                    
211    conv2d_6_weights                                    432/432         weights/weights           const s8              
212    conv2d_7_bias                                       8/32            weights/weights           const s32             
213    conv2d_7_output                                     4608/4608       activations/**default**   s8                    
214    conv2d_7_scratch0                                   272/272         activations/**default**   s8                    
215    conv2d_7_weights                                    384/384         weights/weights           const s8              
216    conv2d_8_bias                                       48/192          weights/weights           const s32             
217    conv2d_8_output                                     27648/27648     activations/**default**   s8                    
218    conv2d_8_scratch0                                   512/512         activations/**default**   s8                    
219    conv2d_8_weights                                    384/384         weights/weights           const s8              
220    conv2d_9_bias                                       48/192          weights/weights           const s32             
221    conv2d_9_output                                     27648/27648     activations/**default**   s8                    
222    conv2d_9_pad_before_output                          32448/32448     activations/**default**   s8                    
223    conv2d_9_scratch0                                   1777/1777       activations/**default**   s8                    
224    conv2d_9_weights                                    432/432         weights/weights           const s8              
225    conversion_0_output                                 27648/27649     activations/**default**   s8                    
226    conversion_70_output                                15/60           activations/**default**   float       /output   
227    eltwise_11_output                                   4608/4608       activations/**default**   s8                    
228    eltwise_19_output                                   2304/2304       activations/**default**   s8                    
229    eltwise_23_output                                   2304/2304       activations/**default**   s8                    
230    eltwise_31_output                                   864/864         activations/**default**   s8                    
231    eltwise_35_output                                   864/864         activations/**default**   s8                    
232    eltwise_39_output                                   864/864         activations/**default**   s8                    
233    eltwise_46_output                                   1152/1152       activations/**default**   s8                    
234    eltwise_50_output                                   1152/1152       activations/**default**   s8                    
235    eltwise_58_output                                   504/504         activations/**default**   s8                    
236    eltwise_62_output                                   504/504         activations/**default**   s8                    
237    gemm_68_bias                                        15/60           weights/weights           const s32             
238    gemm_68_output                                      15/15           activations/**default**   s8                    
239    gemm_68_scratch0                                    1280/2560       activations/**default**   s16                   
240    gemm_68_weights                                     19200/19200     weights/weights           const s8              
241    nl_69_output                                        15/15           activations/**default**   s8                    
242    nl_69_scratch0                                      124/496         activations/**default**   s32                   
243    pool_67_output                                      1280/1280       activations/**default**   s8                    
244    serving_default_mobilenetv2_0_35_96_input0_output   27648/27648     activations/**default**   u8          /input    
------ --------------------------------------------------- --------------- ------------------------- ----------- --------- 

C-Layers (84)
------ ---------------------- ---- --------------- --------- -------- ------------------------------------------------------ -------------------------- 
c_id   name (*_layer)         id   layer_type      macc      rom      tensors                                                shape (array id)           
------ ---------------------- ---- --------------- --------- -------- ------------------------------------------------------ -------------------------- 
0      conversion_0           0    Conversion      55296     0        I: serving_default_mobilenetv2_0_35_96_input0_output   uint8(1x96x96x3) (244)     
                                                                      O: conversion_0_output                                 int8(1x96x96x3) (225)      
------ ---------------------- ---- --------------- --------- -------- ------------------------------------------------------ -------------------------- 
1      conv2d_1               1    Conv2D          995344    496      I: conversion_0_output                                 int8(1x96x96x3) (225)      
                                                                      S: conv2d_1_scratch0                                                              
                                                                      W: conv2d_1_weights                                    int8(16x3x3x3) (33)        
                                                                      W: conv2d_1_bias                                       int32(16) (30)             
                                                                      O: conv2d_1_output                                     int8(1x48x48x16) (31)      
------ ---------------------- ---- --------------- --------- -------- ------------------------------------------------------ -------------------------- 
2      conv2d_2_pad_before    2    Pad             0         0        I: conv2d_1_output                                     int8(1x48x48x16) (31)      
                                                                      O: conv2d_2_pad_before_output                          int8(1x50x50x16) (71)      
------ ---------------------- ---- --------------- --------- -------- ------------------------------------------------------ -------------------------- 
3      conv2d_2               2    Conv2D          331792    208      I: conv2d_2_pad_before_output                          int8(1x50x50x16) (71)      
                                                                      S: conv2d_2_scratch0                                                              
                                                                      W: conv2d_2_weights                                    int8(1x3x3x16) (73)        
                                                                      W: conv2d_2_bias                                       int32(16) (69)             
                                                                      O: conv2d_2_output                                     int8(1x48x48x16) (70)      
------ ---------------------- ---- --------------- --------- -------- ------------------------------------------------------ -------------------------- 
4      conv2d_3               3    Conv2D          294920    160      I: conv2d_2_output                                     int8(1x48x48x16) (70)      
                                                                      S: conv2d_3_scratch0                                                              
                                                                      W: conv2d_3_weights                                    int8(8x1x1x16) (107)       
                                                                      W: conv2d_3_bias                                       int32(8) (104)             
                                                                      O: conv2d_3_output                                     int8(1x48x48x8) (105)      
------ ---------------------- ---- --------------- --------- -------- ------------------------------------------------------ -------------------------- 
5      conv2d_4               4    Conv2D          884784    576      I: conv2d_3_output                                     int8(1x48x48x8) (105)      
                                                                      S: conv2d_4_scratch0                                                              
                                                                      W: conv2d_4_weights                                    int8(48x1x1x8) (150)       
                                                                      W: conv2d_4_bias                                       int32(48) (147)            
                                                                      O: conv2d_4_output                                     int8(1x48x48x48) (148)     
------ ---------------------- ---- --------------- --------- -------- ------------------------------------------------------ -------------------------- 
6      conv2d_6_pad_before    5    Pad             0         0        I: conv2d_4_output                                     int8(1x48x48x48) (148)     
                                                                      O: conv2d_6_pad_before_output                          int8(1x49x49x48) (209)     
------ ---------------------- ---- --------------- --------- -------- ------------------------------------------------------ -------------------------- 
7      conv2d_6               6    Conv2D          248880    624      I: conv2d_6_pad_before_output                          int8(1x49x49x48) (209)     
                                                                      S: conv2d_6_scratch0                                                              
                                                                      W: conv2d_6_weights                                    int8(1x3x3x48) (211)       
                                                                      W: conv2d_6_bias                                       int32(48) (207)            
                                                                      O: conv2d_6_output                                     int8(1x24x24x48) (208)     
------ ---------------------- ---- --------------- --------- -------- ------------------------------------------------------ -------------------------- 
8      conv2d_7               7    Conv2D          221192    416      I: conv2d_6_output                                     int8(1x24x24x48) (208)     
                                                                      S: conv2d_7_scratch0                                                              
                                                                      W: conv2d_7_weights                                    int8(8x1x1x48) (215)       
                                                                      W: conv2d_7_bias                                       int32(8) (212)             
                                                                      O: conv2d_7_output                                     int8(1x24x24x8) (213)      
------ ---------------------- ---- --------------- --------- -------- ------------------------------------------------------ -------------------------- 
9      conv2d_8               8    Conv2D          221232    576      I: conv2d_7_output                                     int8(1x24x24x8) (213)      
                                                                      S: conv2d_8_scratch0                                                              
                                                                      W: conv2d_8_weights                                    int8(48x1x1x8) (219)       
                                                                      W: conv2d_8_bias                                       int32(48) (216)            
                                                                      O: conv2d_8_output                                     int8(1x24x24x48) (217)     
------ ---------------------- ---- --------------- --------- -------- ------------------------------------------------------ -------------------------- 
10     conv2d_9_pad_before    9    Pad             0         0        I: conv2d_8_output                                     int8(1x24x24x48) (217)     
                                                                      O: conv2d_9_pad_before_output                          int8(1x26x26x48) (222)     
------ ---------------------- ---- --------------- --------- -------- ------------------------------------------------------ -------------------------- 
11     conv2d_9               9    Conv2D          248880    624      I: conv2d_9_pad_before_output                          int8(1x26x26x48) (222)     
                                                                      S: conv2d_9_scratch0                                                              
                                                                      W: conv2d_9_weights                                    int8(1x3x3x48) (224)       
                                                                      W: conv2d_9_bias                                       int32(48) (220)            
                                                                      O: conv2d_9_output                                     int8(1x24x24x48) (221)     
------ ---------------------- ---- --------------- --------- -------- ------------------------------------------------------ -------------------------- 
12     conv2d_10              10   Conv2D          221192    416      I: conv2d_9_output                                     int8(1x24x24x48) (221)     
                                                                      S: conv2d_10_scratch0                                                             
                                                                      W: conv2d_10_weights                                   int8(8x1x1x48) (3)         
                                                                      W: conv2d_10_bias                                      int32(8) (0)               
                                                                      O: conv2d_10_output                                    int8(1x24x24x8) (1)        
------ ---------------------- ---- --------------- --------- -------- ------------------------------------------------------ -------------------------- 
13     eltwise_11             11   Eltwise/add     4608      0        I: conv2d_7_output                                     int8(1x24x24x8) (213)      
                                                                      I: conv2d_10_output                                    int8(1x24x24x8) (213)      
                                                                      O: eltwise_11_output                                   int8(1x24x24x8) (227)      
------ ---------------------- ---- --------------- --------- -------- ------------------------------------------------------ -------------------------- 
14     conv2d_12              12   Conv2D          221232    576      I: eltwise_11_output                                   int8(1x24x24x8) (227)      
                                                                      S: conv2d_12_scratch0                                                             
                                                                      W: conv2d_12_weights                                   int8(48x1x1x8) (7)         
                                                                      W: conv2d_12_bias                                      int32(48) (4)              
                                                                      O: conv2d_12_output                                    int8(1x24x24x48) (5)       
------ ---------------------- ---- --------------- --------- -------- ------------------------------------------------------ -------------------------- 
15     conv2d_14_pad_before   13   Pad             0         0        I: conv2d_12_output                                    int8(1x24x24x48) (5)       
                                                                      O: conv2d_14_pad_before_output                         int8(1x25x25x48) (10)      
------ ---------------------- ---- --------------- --------- -------- ------------------------------------------------------ -------------------------- 
16     conv2d_14              14   Conv2D          62256     624      I: conv2d_14_pad_before_output                         int8(1x25x25x48) (10)      
                                                                      S: conv2d_14_scratch0                                                             
                                                                      W: conv2d_14_weights                                   int8(1x3x3x48) (12)        
                                                                      W: conv2d_14_bias                                      int32(48) (8)              
                                                                      O: conv2d_14_output                                    int8(1x12x12x48) (9)       
------ ---------------------- ---- --------------- --------- -------- ------------------------------------------------------ -------------------------- 
17     conv2d_15              15   Conv2D          110608    832      I: conv2d_14_output                                    int8(1x12x12x48) (9)       
                                                                      S: conv2d_15_scratch0                                                             
                                                                      W: conv2d_15_weights                                   int8(16x1x1x48) (16)       
                                                                      W: conv2d_15_bias                                      int32(16) (13)             
                                                                      O: conv2d_15_output                                    int8(1x12x12x16) (14)      
------ ---------------------- ---- --------------- --------- -------- ------------------------------------------------------ -------------------------- 
18     conv2d_16              16   Conv2D          221280    1920     I: conv2d_15_output                                    int8(1x12x12x16) (14)      
                                                                      S: conv2d_16_scratch0                                                             
                                                                      W: conv2d_16_weights                                   int8(96x1x1x16) (20)       
                                                                      W: conv2d_16_bias                                      int32(96) (17)             
                                                                      O: conv2d_16_output                                    int8(1x12x12x96) (18)      
------ ---------------------- ---- --------------- --------- -------- ------------------------------------------------------ -------------------------- 
19     conv2d_17_pad_before   17   Pad             0         0        I: conv2d_16_output                                    int8(1x12x12x96) (18)      
                                                                      O: conv2d_17_pad_before_output                         int8(1x14x14x96) (23)      
------ ---------------------- ---- --------------- --------- -------- ------------------------------------------------------ -------------------------- 
20     conv2d_17              17   Conv2D          124512    1248     I: conv2d_17_pad_before_output                         int8(1x14x14x96) (23)      
                                                                      S: conv2d_17_scratch0                                                             
                                                                      W: conv2d_17_weights                                   int8(1x3x3x96) (25)        
                                                                      W: conv2d_17_bias                                      int32(96) (21)             
                                                                      O: conv2d_17_output                                    int8(1x12x12x96) (22)      
------ ---------------------- ---- --------------- --------- -------- ------------------------------------------------------ -------------------------- 
21     conv2d_18              18   Conv2D          221200    1600     I: conv2d_17_output                                    int8(1x12x12x96) (22)      
                                                                      S: conv2d_18_scratch0                                                             
                                                                      W: conv2d_18_weights                                   int8(16x1x1x96) (29)       
                                                                      W: conv2d_18_bias                                      int32(16) (26)             
                                                                      O: conv2d_18_output                                    int8(1x12x12x16) (27)      
------ ---------------------- ---- --------------- --------- -------- ------------------------------------------------------ -------------------------- 
22     eltwise_19             19   Eltwise/add     2304      0        I: conv2d_15_output                                    int8(1x12x12x16) (14)      
                                                                      I: conv2d_18_output                                    int8(1x12x12x16) (14)      
                                                                      O: eltwise_19_output                                   int8(1x12x12x16) (228)     
------ ---------------------- ---- --------------- --------- -------- ------------------------------------------------------ -------------------------- 
23     conv2d_20              20   Conv2D          221280    1920     I: eltwise_19_output                                   int8(1x12x12x16) (228)     
                                                                      S: conv2d_20_scratch0                                                             
                                                                      W: conv2d_20_weights                                   int8(96x1x1x16) (37)       
                                                                      W: conv2d_20_bias                                      int32(96) (34)             
                                                                      O: conv2d_20_output                                    int8(1x12x12x96) (35)      
------ ---------------------- ---- --------------- --------- -------- ------------------------------------------------------ -------------------------- 
24     conv2d_21_pad_before   21   Pad             0         0        I: conv2d_20_output                                    int8(1x12x12x96) (35)      
                                                                      O: conv2d_21_pad_before_output                         int8(1x14x14x96) (40)      
------ ---------------------- ---- --------------- --------- -------- ------------------------------------------------------ -------------------------- 
25     conv2d_21              21   Conv2D          124512    1248     I: conv2d_21_pad_before_output                         int8(1x14x14x96) (40)      
                                                                      S: conv2d_21_scratch0                                                             
                                                                      W: conv2d_21_weights                                   int8(1x3x3x96) (42)        
                                                                      W: conv2d_21_bias                                      int32(96) (38)             
                                                                      O: conv2d_21_output                                    int8(1x12x12x96) (39)      
------ ---------------------- ---- --------------- --------- -------- ------------------------------------------------------ -------------------------- 
26     conv2d_22              22   Conv2D          221200    1600     I: conv2d_21_output                                    int8(1x12x12x96) (39)      
                                                                      S: conv2d_22_scratch0                                                             
                                                                      W: conv2d_22_weights                                   int8(16x1x1x96) (46)       
                                                                      W: conv2d_22_bias                                      int32(16) (43)             
                                                                      O: conv2d_22_output                                    int8(1x12x12x16) (44)      
------ ---------------------- ---- --------------- --------- -------- ------------------------------------------------------ -------------------------- 
27     eltwise_23             23   Eltwise/add     2304      0        I: eltwise_19_output                                   int8(1x12x12x16) (228)     
                                                                      I: conv2d_22_output                                    int8(1x12x12x16) (228)     
                                                                      O: eltwise_23_output                                   int8(1x12x12x16) (229)     
------ ---------------------- ---- --------------- --------- -------- ------------------------------------------------------ -------------------------- 
28     conv2d_24              24   Conv2D          221280    1920     I: eltwise_23_output                                   int8(1x12x12x16) (229)     
                                                                      S: conv2d_24_scratch0                                                             
                                                                      W: conv2d_24_weights                                   int8(96x1x1x16) (50)       
                                                                      W: conv2d_24_bias                                      int32(96) (47)             
                                                                      O: conv2d_24_output                                    int8(1x12x12x96) (48)      
------ ---------------------- ---- --------------- --------- -------- ------------------------------------------------------ -------------------------- 
29     conv2d_26_pad_before   25   Pad             0         0        I: conv2d_24_output                                    int8(1x12x12x96) (48)      
                                                                      O: conv2d_26_pad_before_output                         int8(1x13x13x96) (53)      
------ ---------------------- ---- --------------- --------- -------- ------------------------------------------------------ -------------------------- 
30     conv2d_26              26   Conv2D          31200     1248     I: conv2d_26_pad_before_output                         int8(1x13x13x96) (53)      
                                                                      S: conv2d_26_scratch0                                                             
                                                                      W: conv2d_26_weights                                   int8(1x3x3x96) (55)        
                                                                      W: conv2d_26_bias                                      int32(96) (51)             
                                                                      O: conv2d_26_output                                    int8(1x6x6x96) (52)        
------ ---------------------- ---- --------------- --------- -------- ------------------------------------------------------ -------------------------- 
31     conv2d_27              27   Conv2D          82968     2400     I: conv2d_26_output                                    int8(1x6x6x96) (52)        
                                                                      S: conv2d_27_scratch0                                                             
                                                                      W: conv2d_27_weights                                   int8(24x1x1x96) (59)       
                                                                      W: conv2d_27_bias                                      int32(24) (56)             
                                                                      O: conv2d_27_output                                    int8(1x6x6x24) (57)        
------ ---------------------- ---- --------------- --------- -------- ------------------------------------------------------ -------------------------- 
32     conv2d_28              28   Conv2D          124560    4032     I: conv2d_27_output                                    int8(1x6x6x24) (57)        
                                                                      S: conv2d_28_scratch0                                                             
                                                                      W: conv2d_28_weights                                   int8(144x1x1x24) (63)      
                                                                      W: conv2d_28_bias                                      int32(144) (60)            
                                                                      O: conv2d_28_output                                    int8(1x6x6x144) (61)       
------ ---------------------- ---- --------------- --------- -------- ------------------------------------------------------ -------------------------- 
33     conv2d_29_pad_before   29   Pad             0         0        I: conv2d_28_output                                    int8(1x6x6x144) (61)       
                                                                      O: conv2d_29_pad_before_output                         int8(1x8x8x144) (66)       
------ ---------------------- ---- --------------- --------- -------- ------------------------------------------------------ -------------------------- 
34     conv2d_29              29   Conv2D          46800     1872     I: conv2d_29_pad_before_output                         int8(1x8x8x144) (66)       
                                                                      S: conv2d_29_scratch0                                                             
                                                                      W: conv2d_29_weights                                   int8(1x3x3x144) (68)       
                                                                      W: conv2d_29_bias                                      int32(144) (64)            
                                                                      O: conv2d_29_output                                    int8(1x6x6x144) (65)       
------ ---------------------- ---- --------------- --------- -------- ------------------------------------------------------ -------------------------- 
35     conv2d_30              30   Conv2D          124440    3552     I: conv2d_29_output                                    int8(1x6x6x144) (65)       
                                                                      S: conv2d_30_scratch0                                                             
                                                                      W: conv2d_30_weights                                   int8(24x1x1x144) (77)      
                                                                      W: conv2d_30_bias                                      int32(24) (74)             
                                                                      O: conv2d_30_output                                    int8(1x6x6x24) (75)        
------ ---------------------- ---- --------------- --------- -------- ------------------------------------------------------ -------------------------- 
36     eltwise_31             31   Eltwise/add     864       0        I: conv2d_27_output                                    int8(1x6x6x24) (57)        
                                                                      I: conv2d_30_output                                    int8(1x6x6x24) (57)        
                                                                      O: eltwise_31_output                                   int8(1x6x6x24) (230)       
------ ---------------------- ---- --------------- --------- -------- ------------------------------------------------------ -------------------------- 
37     conv2d_32              32   Conv2D          124560    4032     I: eltwise_31_output                                   int8(1x6x6x24) (230)       
                                                                      S: conv2d_32_scratch0                                                             
                                                                      W: conv2d_32_weights                                   int8(144x1x1x24) (81)      
                                                                      W: conv2d_32_bias                                      int32(144) (78)            
                                                                      O: conv2d_32_output                                    int8(1x6x6x144) (79)       
------ ---------------------- ---- --------------- --------- -------- ------------------------------------------------------ -------------------------- 
38     conv2d_33_pad_before   33   Pad             0         0        I: conv2d_32_output                                    int8(1x6x6x144) (79)       
                                                                      O: conv2d_33_pad_before_output                         int8(1x8x8x144) (84)       
------ ---------------------- ---- --------------- --------- -------- ------------------------------------------------------ -------------------------- 
39     conv2d_33              33   Conv2D          46800     1872     I: conv2d_33_pad_before_output                         int8(1x8x8x144) (84)       
                                                                      S: conv2d_33_scratch0                                                             
                                                                      W: conv2d_33_weights                                   int8(1x3x3x144) (86)       
                                                                      W: conv2d_33_bias                                      int32(144) (82)            
                                                                      O: conv2d_33_output                                    int8(1x6x6x144) (83)       
------ ---------------------- ---- --------------- --------- -------- ------------------------------------------------------ -------------------------- 
40     conv2d_34              34   Conv2D          124440    3552     I: conv2d_33_output                                    int8(1x6x6x144) (83)       
                                                                      S: conv2d_34_scratch0                                                             
                                                                      W: conv2d_34_weights                                   int8(24x1x1x144) (90)      
                                                                      W: conv2d_34_bias                                      int32(24) (87)             
                                                                      O: conv2d_34_output                                    int8(1x6x6x24) (88)        
------ ---------------------- ---- --------------- --------- -------- ------------------------------------------------------ -------------------------- 
41     eltwise_35             35   Eltwise/add     864       0        I: eltwise_31_output                                   int8(1x6x6x24) (230)       
                                                                      I: conv2d_34_output                                    int8(1x6x6x24) (230)       
                                                                      O: eltwise_35_output                                   int8(1x6x6x24) (231)       
------ ---------------------- ---- --------------- --------- -------- ------------------------------------------------------ -------------------------- 
42     conv2d_36              36   Conv2D          124560    4032     I: eltwise_35_output                                   int8(1x6x6x24) (231)       
                                                                      S: conv2d_36_scratch0                                                             
                                                                      W: conv2d_36_weights                                   int8(144x1x1x24) (94)      
                                                                      W: conv2d_36_bias                                      int32(144) (91)            
                                                                      O: conv2d_36_output                                    int8(1x6x6x144) (92)       
------ ---------------------- ---- --------------- --------- -------- ------------------------------------------------------ -------------------------- 
43     conv2d_37_pad_before   37   Pad             0         0        I: conv2d_36_output                                    int8(1x6x6x144) (92)       
                                                                      O: conv2d_37_pad_before_output                         int8(1x8x8x144) (97)       
------ ---------------------- ---- --------------- --------- -------- ------------------------------------------------------ -------------------------- 
44     conv2d_37              37   Conv2D          46800     1872     I: conv2d_37_pad_before_output                         int8(1x8x8x144) (97)       
                                                                      S: conv2d_37_scratch0                                                             
                                                                      W: conv2d_37_weights                                   int8(1x3x3x144) (99)       
                                                                      W: conv2d_37_bias                                      int32(144) (95)            
                                                                      O: conv2d_37_output                                    int8(1x6x6x144) (96)       
------ ---------------------- ---- --------------- --------- -------- ------------------------------------------------------ -------------------------- 
45     conv2d_38              38   Conv2D          124440    3552     I: conv2d_37_output                                    int8(1x6x6x144) (96)       
                                                                      S: conv2d_38_scratch0                                                             
                                                                      W: conv2d_38_weights                                   int8(24x1x1x144) (103)     
                                                                      W: conv2d_38_bias                                      int32(24) (100)            
                                                                      O: conv2d_38_output                                    int8(1x6x6x24) (101)       
------ ---------------------- ---- --------------- --------- -------- ------------------------------------------------------ -------------------------- 
46     eltwise_39             39   Eltwise/add     864       0        I: eltwise_35_output                                   int8(1x6x6x24) (231)       
                                                                      I: conv2d_38_output                                    int8(1x6x6x24) (231)       
                                                                      O: eltwise_39_output                                   int8(1x6x6x24) (232)       
------ ---------------------- ---- --------------- --------- -------- ------------------------------------------------------ -------------------------- 
47     conv2d_40              40   Conv2D          124560    4032     I: eltwise_39_output                                   int8(1x6x6x24) (232)       
                                                                      S: conv2d_40_scratch0                                                             
                                                                      W: conv2d_40_weights                                   int8(144x1x1x24) (111)     
                                                                      W: conv2d_40_bias                                      int32(144) (108)           
                                                                      O: conv2d_40_output                                    int8(1x6x6x144) (109)      
------ ---------------------- ---- --------------- --------- -------- ------------------------------------------------------ -------------------------- 
48     conv2d_41_pad_before   41   Pad             0         0        I: conv2d_40_output                                    int8(1x6x6x144) (109)      
                                                                      O: conv2d_41_pad_before_output                         int8(1x8x8x144) (114)      
------ ---------------------- ---- --------------- --------- -------- ------------------------------------------------------ -------------------------- 
49     conv2d_41              41   Conv2D          46800     1872     I: conv2d_41_pad_before_output                         int8(1x8x8x144) (114)      
                                                                      S: conv2d_41_scratch0                                                             
                                                                      W: conv2d_41_weights                                   int8(1x3x3x144) (116)      
                                                                      W: conv2d_41_bias                                      int32(144) (112)           
                                                                      O: conv2d_41_output                                    int8(1x6x6x144) (113)      
------ ---------------------- ---- --------------- --------- -------- ------------------------------------------------------ -------------------------- 
50     conv2d_42              42   Conv2D          165920    4736     I: conv2d_41_output                                    int8(1x6x6x144) (113)      
                                                                      S: conv2d_42_scratch0                                                             
                                                                      W: conv2d_42_weights                                   int8(32x1x1x144) (120)     
                                                                      W: conv2d_42_bias                                      int32(32) (117)            
                                                                      O: conv2d_42_output                                    int8(1x6x6x32) (118)       
------ ---------------------- ---- --------------- --------- -------- ------------------------------------------------------ -------------------------- 
51     conv2d_43              43   Conv2D          221376    6912     I: conv2d_42_output                                    int8(1x6x6x32) (118)       
                                                                      S: conv2d_43_scratch0                                                             
                                                                      W: conv2d_43_weights                                   int8(192x1x1x32) (124)     
                                                                      W: conv2d_43_bias                                      int32(192) (121)           
                                                                      O: conv2d_43_output                                    int8(1x6x6x192) (122)      
------ ---------------------- ---- --------------- --------- -------- ------------------------------------------------------ -------------------------- 
52     conv2d_44_pad_before   44   Pad             0         0        I: conv2d_43_output                                    int8(1x6x6x192) (122)      
                                                                      O: conv2d_44_pad_before_output                         int8(1x8x8x192) (127)      
------ ---------------------- ---- --------------- --------- -------- ------------------------------------------------------ -------------------------- 
53     conv2d_44              44   Conv2D          62400     2496     I: conv2d_44_pad_before_output                         int8(1x8x8x192) (127)      
                                                                      S: conv2d_44_scratch0                                                             
                                                                      W: conv2d_44_weights                                   int8(1x3x3x192) (129)      
                                                                      W: conv2d_44_bias                                      int32(192) (125)           
                                                                      O: conv2d_44_output                                    int8(1x6x6x192) (126)      
------ ---------------------- ---- --------------- --------- -------- ------------------------------------------------------ -------------------------- 
54     conv2d_45              45   Conv2D          221216    6272     I: conv2d_44_output                                    int8(1x6x6x192) (126)      
                                                                      S: conv2d_45_scratch0                                                             
                                                                      W: conv2d_45_weights                                   int8(32x1x1x192) (133)     
                                                                      W: conv2d_45_bias                                      int32(32) (130)            
                                                                      O: conv2d_45_output                                    int8(1x6x6x32) (131)       
------ ---------------------- ---- --------------- --------- -------- ------------------------------------------------------ -------------------------- 
55     eltwise_46             46   Eltwise/add     1152      0        I: conv2d_42_output                                    int8(1x6x6x32) (118)       
                                                                      I: conv2d_45_output                                    int8(1x6x6x32) (118)       
                                                                      O: eltwise_46_output                                   int8(1x6x6x32) (233)       
------ ---------------------- ---- --------------- --------- -------- ------------------------------------------------------ -------------------------- 
56     conv2d_47              47   Conv2D          221376    6912     I: eltwise_46_output                                   int8(1x6x6x32) (233)       
                                                                      S: conv2d_47_scratch0                                                             
                                                                      W: conv2d_47_weights                                   int8(192x1x1x32) (137)     
                                                                      W: conv2d_47_bias                                      int32(192) (134)           
                                                                      O: conv2d_47_output                                    int8(1x6x6x192) (135)      
------ ---------------------- ---- --------------- --------- -------- ------------------------------------------------------ -------------------------- 
57     conv2d_48_pad_before   48   Pad             0         0        I: conv2d_47_output                                    int8(1x6x6x192) (135)      
                                                                      O: conv2d_48_pad_before_output                         int8(1x8x8x192) (140)      
------ ---------------------- ---- --------------- --------- -------- ------------------------------------------------------ -------------------------- 
58     conv2d_48              48   Conv2D          62400     2496     I: conv2d_48_pad_before_output                         int8(1x8x8x192) (140)      
                                                                      S: conv2d_48_scratch0                                                             
                                                                      W: conv2d_48_weights                                   int8(1x3x3x192) (142)      
                                                                      W: conv2d_48_bias                                      int32(192) (138)           
                                                                      O: conv2d_48_output                                    int8(1x6x6x192) (139)      
------ ---------------------- ---- --------------- --------- -------- ------------------------------------------------------ -------------------------- 
59     conv2d_49              49   Conv2D          221216    6272     I: conv2d_48_output                                    int8(1x6x6x192) (139)      
                                                                      S: conv2d_49_scratch0                                                             
                                                                      W: conv2d_49_weights                                   int8(32x1x1x192) (146)     
                                                                      W: conv2d_49_bias                                      int32(32) (143)            
                                                                      O: conv2d_49_output                                    int8(1x6x6x32) (144)       
------ ---------------------- ---- --------------- --------- -------- ------------------------------------------------------ -------------------------- 
60     eltwise_50             50   Eltwise/add     1152      0        I: eltwise_46_output                                   int8(1x6x6x32) (233)       
                                                                      I: conv2d_49_output                                    int8(1x6x6x32) (233)       
                                                                      O: eltwise_50_output                                   int8(1x6x6x32) (234)       
------ ---------------------- ---- --------------- --------- -------- ------------------------------------------------------ -------------------------- 
61     conv2d_51              51   Conv2D          221376    6912     I: eltwise_50_output                                   int8(1x6x6x32) (234)       
                                                                      S: conv2d_51_scratch0                                                             
                                                                      W: conv2d_51_weights                                   int8(192x1x1x32) (154)     
                                                                      W: conv2d_51_bias                                      int32(192) (151)           
                                                                      O: conv2d_51_output                                    int8(1x6x6x192) (152)      
------ ---------------------- ---- --------------- --------- -------- ------------------------------------------------------ -------------------------- 
62     conv2d_53_pad_before   52   Pad             0         0        I: conv2d_51_output                                    int8(1x6x6x192) (152)      
                                                                      O: conv2d_53_pad_before_output                         int8(1x7x7x192) (157)      
------ ---------------------- ---- --------------- --------- -------- ------------------------------------------------------ -------------------------- 
63     conv2d_53              53   Conv2D          15744     2496     I: conv2d_53_pad_before_output                         int8(1x7x7x192) (157)      
                                                                      S: conv2d_53_scratch0                                                             
                                                                      W: conv2d_53_weights                                   int8(1x3x3x192) (159)      
                                                                      W: conv2d_53_bias                                      int32(192) (155)           
                                                                      O: conv2d_53_output                                    int8(1x3x3x192) (156)      
------ ---------------------- ---- --------------- --------- -------- ------------------------------------------------------ -------------------------- 
64     conv2d_54              54   Conv2D          96824     10976    I: conv2d_53_output                                    int8(1x3x3x192) (156)      
                                                                      S: conv2d_54_scratch0                                                             
                                                                      W: conv2d_54_weights                                   int8(56x1x1x192) (163)     
                                                                      W: conv2d_54_bias                                      int32(56) (160)            
                                                                      O: conv2d_54_output                                    int8(1x3x3x56) (161)       
------ ---------------------- ---- --------------- --------- -------- ------------------------------------------------------ -------------------------- 
65     conv2d_55              55   Conv2D          169680    20160    I: conv2d_54_output                                    int8(1x3x3x56) (161)       
                                                                      S: conv2d_55_scratch0                                                             
                                                                      W: conv2d_55_weights                                   int8(336x1x1x56) (167)     
                                                                      W: conv2d_55_bias                                      int32(336) (164)           
                                                                      O: conv2d_55_output                                    int8(1x3x3x336) (165)      
------ ---------------------- ---- --------------- --------- -------- ------------------------------------------------------ -------------------------- 
66     conv2d_56_pad_before   56   Pad             0         0        I: conv2d_55_output                                    int8(1x3x3x336) (165)      
                                                                      O: conv2d_56_pad_before_output                         int8(1x5x5x336) (170)      
------ ---------------------- ---- --------------- --------- -------- ------------------------------------------------------ -------------------------- 
67     conv2d_56              56   Conv2D          27552     4368     I: conv2d_56_pad_before_output                         int8(1x5x5x336) (170)      
                                                                      S: conv2d_56_scratch0                                                             
                                                                      W: conv2d_56_weights                                   int8(1x3x3x336) (172)      
                                                                      W: conv2d_56_bias                                      int32(336) (168)           
                                                                      O: conv2d_56_output                                    int8(1x3x3x336) (169)      
------ ---------------------- ---- --------------- --------- -------- ------------------------------------------------------ -------------------------- 
68     conv2d_57              57   Conv2D          169400    19040    I: conv2d_56_output                                    int8(1x3x3x336) (169)      
                                                                      S: conv2d_57_scratch0                                                             
                                                                      W: conv2d_57_weights                                   int8(56x1x1x336) (176)     
                                                                      W: conv2d_57_bias                                      int32(56) (173)            
                                                                      O: conv2d_57_output                                    int8(1x3x3x56) (174)       
------ ---------------------- ---- --------------- --------- -------- ------------------------------------------------------ -------------------------- 
69     eltwise_58             58   Eltwise/add     504       0        I: conv2d_54_output                                    int8(1x3x3x56) (161)       
                                                                      I: conv2d_57_output                                    int8(1x3x3x56) (161)       
                                                                      O: eltwise_58_output                                   int8(1x3x3x56) (235)       
------ ---------------------- ---- --------------- --------- -------- ------------------------------------------------------ -------------------------- 
70     conv2d_59              59   Conv2D          169680    20160    I: eltwise_58_output                                   int8(1x3x3x56) (235)       
                                                                      S: conv2d_59_scratch0                                                             
                                                                      W: conv2d_59_weights                                   int8(336x1x1x56) (180)     
                                                                      W: conv2d_59_bias                                      int32(336) (177)           
                                                                      O: conv2d_59_output                                    int8(1x3x3x336) (178)      
------ ---------------------- ---- --------------- --------- -------- ------------------------------------------------------ -------------------------- 
71     conv2d_60_pad_before   60   Pad             0         0        I: conv2d_59_output                                    int8(1x3x3x336) (178)      
                                                                      O: conv2d_60_pad_before_output                         int8(1x5x5x336) (183)      
------ ---------------------- ---- --------------- --------- -------- ------------------------------------------------------ -------------------------- 
72     conv2d_60              60   Conv2D          27552     4368     I: conv2d_60_pad_before_output                         int8(1x5x5x336) (183)      
                                                                      S: conv2d_60_scratch0                                                             
                                                                      W: conv2d_60_weights                                   int8(1x3x3x336) (185)      
                                                                      W: conv2d_60_bias                                      int32(336) (181)           
                                                                      O: conv2d_60_output                                    int8(1x3x3x336) (182)      
------ ---------------------- ---- --------------- --------- -------- ------------------------------------------------------ -------------------------- 
73     conv2d_61              61   Conv2D          169400    19040    I: conv2d_60_output                                    int8(1x3x3x336) (182)      
                                                                      S: conv2d_61_scratch0                                                             
                                                                      W: conv2d_61_weights                                   int8(56x1x1x336) (189)     
                                                                      W: conv2d_61_bias                                      int32(56) (186)            
                                                                      O: conv2d_61_output                                    int8(1x3x3x56) (187)       
------ ---------------------- ---- --------------- --------- -------- ------------------------------------------------------ -------------------------- 
74     eltwise_62             62   Eltwise/add     504       0        I: eltwise_58_output                                   int8(1x3x3x56) (235)       
                                                                      I: conv2d_61_output                                    int8(1x3x3x56) (235)       
                                                                      O: eltwise_62_output                                   int8(1x3x3x56) (236)       
------ ---------------------- ---- --------------- --------- -------- ------------------------------------------------------ -------------------------- 
75     conv2d_63              63   Conv2D          169680    20160    I: eltwise_62_output                                   int8(1x3x3x56) (236)       
                                                                      S: conv2d_63_scratch0                                                             
                                                                      W: conv2d_63_weights                                   int8(336x1x1x56) (193)     
                                                                      W: conv2d_63_bias                                      int32(336) (190)           
                                                                      O: conv2d_63_output                                    int8(1x3x3x336) (191)      
------ ---------------------- ---- --------------- --------- -------- ------------------------------------------------------ -------------------------- 
76     conv2d_64_pad_before   64   Pad             0         0        I: conv2d_63_output                                    int8(1x3x3x336) (191)      
                                                                      O: conv2d_64_pad_before_output                         int8(1x5x5x336) (196)      
------ ---------------------- ---- --------------- --------- -------- ------------------------------------------------------ -------------------------- 
77     conv2d_64              64   Conv2D          27552     4368     I: conv2d_64_pad_before_output                         int8(1x5x5x336) (196)      
                                                                      S: conv2d_64_scratch0                                                             
                                                                      W: conv2d_64_weights                                   int8(1x3x3x336) (198)      
                                                                      W: conv2d_64_bias                                      int32(336) (194)           
                                                                      O: conv2d_64_output                                    int8(1x3x3x336) (195)      
------ ---------------------- ---- --------------- --------- -------- ------------------------------------------------------ -------------------------- 
78     conv2d_65              65   Conv2D          338800    38080    I: conv2d_64_output                                    int8(1x3x3x336) (195)      
                                                                      S: conv2d_65_scratch0                                                             
                                                                      W: conv2d_65_weights                                   int8(112x1x1x336) (202)    
                                                                      W: conv2d_65_bias                                      int32(112) (199)           
                                                                      O: conv2d_65_output                                    int8(1x3x3x112) (200)      
------ ---------------------- ---- --------------- --------- -------- ------------------------------------------------------ -------------------------- 
79     conv2d_66              66   Conv2D          1291520   148480   I: conv2d_65_output                                    int8(1x3x3x112) (200)      
                                                                      S: conv2d_66_scratch0                                                             
                                                                      W: conv2d_66_weights                                   int8(1280x1x1x112) (206)   
                                                                      W: conv2d_66_bias                                      int32(1280) (203)          
                                                                      O: conv2d_66_output                                    int8(1x3x3x1280) (204)     
------ ---------------------- ---- --------------- --------- -------- ------------------------------------------------------ -------------------------- 
80     pool_67                67   Pool            11520     0        I: conv2d_66_output                                    int8(1x3x3x1280) (204)     
                                                                      O: pool_67_output                                      int8(1x1x1x1280) (243)     
------ ---------------------- ---- --------------- --------- -------- ------------------------------------------------------ -------------------------- 
81     gemm_68                68   Dense           19215     19260    I: pool_67_output                                      int8(1x1x1x1280) (243)     
                                                                      S: gemm_68_scratch0                                                               
                                                                      W: gemm_68_weights                                     int8(15x1280) (240)        
                                                                      W: gemm_68_bias                                        int32(15) (237)            
                                                                      O: gemm_68_output                                      int8(1x15) (238)           
------ ---------------------- ---- --------------- --------- -------- ------------------------------------------------------ -------------------------- 
82     nl_69                  69   Nonlinearity    225       0        I: gemm_68_output                                      int8(1x15) (238)           
                                                                      S: nl_69_scratch0                                                                 
                                                                      O: nl_69_output                                        int8(1x15) (241)           
------ ---------------------- ---- --------------- --------- -------- ------------------------------------------------------ -------------------------- 
83     conversion_70          70   Conversion      30        0        I: nl_69_output                                        int8(1x15) (241)           
                                                                      O: conversion_70_output                                f32(1x15) (226)            
------ ---------------------- ---- --------------- --------- -------- ------------------------------------------------------ -------------------------- 



Number of operations per c-layer
------- ------ ---------------------------- ------------ ------------- 
c_id    m_id   name (type)                           #op          type 
------- ------ ---------------------------- ------------ ------------- 
0       0      conversion_0 (Conversion)          55,296    smul_u8_s8 
1       1      conv2d_1 (Conv2D)                 995,344    smul_s8_s8 
2       2      conv2d_2_pad_before (Pad)               0    smul_s8_s8 
3       2      conv2d_2 (Conv2D)                 331,792    smul_s8_s8 
4       3      conv2d_3 (Conv2D)                 294,920    smul_s8_s8 
5       4      conv2d_4 (Conv2D)                 884,784    smul_s8_s8 
6       5      conv2d_6_pad_before (Pad)               0    smul_s8_s8 
7       6      conv2d_6 (Conv2D)                 248,880    smul_s8_s8 
8       7      conv2d_7 (Conv2D)                 221,192    smul_s8_s8 
9       8      conv2d_8 (Conv2D)                 221,232    smul_s8_s8 
10      9      conv2d_9_pad_before (Pad)               0    smul_s8_s8 
11      9      conv2d_9 (Conv2D)                 248,880    smul_s8_s8 
12      10     conv2d_10 (Conv2D)                221,192    smul_s8_s8 
13      11     eltwise_11 (Eltwise/add)            4,608      op_s8_s8 
14      12     conv2d_12 (Conv2D)                221,232    smul_s8_s8 
15      13     conv2d_14_pad_before (Pad)              0    smul_s8_s8 
16      14     conv2d_14 (Conv2D)                 62,256    smul_s8_s8 
17      15     conv2d_15 (Conv2D)                110,608    smul_s8_s8 
18      16     conv2d_16 (Conv2D)                221,280    smul_s8_s8 
19      17     conv2d_17_pad_before (Pad)              0    smul_s8_s8 
20      17     conv2d_17 (Conv2D)                124,512    smul_s8_s8 
21      18     conv2d_18 (Conv2D)                221,200    smul_s8_s8 
22      19     eltwise_19 (Eltwise/add)            2,304      op_s8_s8 
23      20     conv2d_20 (Conv2D)                221,280    smul_s8_s8 
24      21     conv2d_21_pad_before (Pad)              0    smul_s8_s8 
25      21     conv2d_21 (Conv2D)                124,512    smul_s8_s8 
26      22     conv2d_22 (Conv2D)                221,200    smul_s8_s8 
27      23     eltwise_23 (Eltwise/add)            2,304      op_s8_s8 
28      24     conv2d_24 (Conv2D)                221,280    smul_s8_s8 
29      25     conv2d_26_pad_before (Pad)              0    smul_s8_s8 
30      26     conv2d_26 (Conv2D)                 31,200    smul_s8_s8 
31      27     conv2d_27 (Conv2D)                 82,968    smul_s8_s8 
32      28     conv2d_28 (Conv2D)                124,560    smul_s8_s8 
33      29     conv2d_29_pad_before (Pad)              0    smul_s8_s8 
34      29     conv2d_29 (Conv2D)                 46,800    smul_s8_s8 
35      30     conv2d_30 (Conv2D)                124,440    smul_s8_s8 
36      31     eltwise_31 (Eltwise/add)              864      op_s8_s8 
37      32     conv2d_32 (Conv2D)                124,560    smul_s8_s8 
38      33     conv2d_33_pad_before (Pad)              0    smul_s8_s8 
39      33     conv2d_33 (Conv2D)                 46,800    smul_s8_s8 
40      34     conv2d_34 (Conv2D)                124,440    smul_s8_s8 
41      35     eltwise_35 (Eltwise/add)              864      op_s8_s8 
42      36     conv2d_36 (Conv2D)                124,560    smul_s8_s8 
43      37     conv2d_37_pad_before (Pad)              0    smul_s8_s8 
44      37     conv2d_37 (Conv2D)                 46,800    smul_s8_s8 
45      38     conv2d_38 (Conv2D)                124,440    smul_s8_s8 
46      39     eltwise_39 (Eltwise/add)              864      op_s8_s8 
47      40     conv2d_40 (Conv2D)                124,560    smul_s8_s8 
48      41     conv2d_41_pad_before (Pad)              0    smul_s8_s8 
49      41     conv2d_41 (Conv2D)                 46,800    smul_s8_s8 
50      42     conv2d_42 (Conv2D)                165,920    smul_s8_s8 
51      43     conv2d_43 (Conv2D)                221,376    smul_s8_s8 
52      44     conv2d_44_pad_before (Pad)              0    smul_s8_s8 
53      44     conv2d_44 (Conv2D)                 62,400    smul_s8_s8 
54      45     conv2d_45 (Conv2D)                221,216    smul_s8_s8 
55      46     eltwise_46 (Eltwise/add)            1,152      op_s8_s8 
56      47     conv2d_47 (Conv2D)                221,376    smul_s8_s8 
57      48     conv2d_48_pad_before (Pad)              0    smul_s8_s8 
58      48     conv2d_48 (Conv2D)                 62,400    smul_s8_s8 
59      49     conv2d_49 (Conv2D)                221,216    smul_s8_s8 
60      50     eltwise_50 (Eltwise/add)            1,152      op_s8_s8 
61      51     conv2d_51 (Conv2D)                221,376    smul_s8_s8 
62      52     conv2d_53_pad_before (Pad)              0    smul_s8_s8 
63      53     conv2d_53 (Conv2D)                 15,744    smul_s8_s8 
64      54     conv2d_54 (Conv2D)                 96,824    smul_s8_s8 
65      55     conv2d_55 (Conv2D)                169,680    smul_s8_s8 
66      56     conv2d_56_pad_before (Pad)              0    smul_s8_s8 
67      56     conv2d_56 (Conv2D)                 27,552    smul_s8_s8 
68      57     conv2d_57 (Conv2D)                169,400    smul_s8_s8 
69      58     eltwise_58 (Eltwise/add)              504      op_s8_s8 
70      59     conv2d_59 (Conv2D)                169,680    smul_s8_s8 
71      60     conv2d_60_pad_before (Pad)              0    smul_s8_s8 
72      60     conv2d_60 (Conv2D)                 27,552    smul_s8_s8 
73      61     conv2d_61 (Conv2D)                169,400    smul_s8_s8 
74      62     eltwise_62 (Eltwise/add)              504      op_s8_s8 
75      63     conv2d_63 (Conv2D)                169,680    smul_s8_s8 
76      64     conv2d_64_pad_before (Pad)              0    smul_s8_s8 
77      64     conv2d_64 (Conv2D)                 27,552    smul_s8_s8 
78      65     conv2d_65 (Conv2D)                338,800    smul_s8_s8 
79      66     conv2d_66 (Conv2D)              1,291,520    smul_s8_s8 
80      67     pool_67 (Pool)                     11,520    smul_s8_s8 
81      68     gemm_68 (Dense)                    19,215    smul_s8_s8 
82      69     nl_69 (Nonlinearity)                  225      op_s8_s8 
83      70     conversion_70 (Conversion)             30   smul_s8_f32 
------- ------ ---------------------------- ------------ ------------- 
total                                         10,762,574 

Number of operation types
---------------- ------------ ----------- 
operation type              #           % 
---------------- ------------ ----------- 
smul_u8_s8             55,296        0.5% 
smul_s8_s8         10,691,903       99.3% 
op_s8_s8               15,345        0.1% 
smul_s8_f32                30        0.0% 

Complexity report (model)
------ ------------------------------------------ ------------------------- ------------------------- ---------- 
m_id   name                                       c_macc                    c_rom                     c_id       
------ ------------------------------------------ ------------------------- ------------------------- ---------- 
0      serving_default_mobilenetv2_.._96_input0   |                  0.5%   |                  0.0%   [0]        
1      conv2d_1                                   ||||||||||||       9.2%   |                  0.1%   [1]        
2      conv2d_2                                   ||||               3.1%   |                  0.0%   [2, 3]     
3      conv2d_3                                   ||||               2.7%   |                  0.0%   [4]        
4      conv2d_4                                   |||||||||||        8.2%   |                  0.1%   [5]        
5      pad_5                                      |                  0.0%   |                  0.0%   [6]        
6      conv2d_6                                   |||                2.3%   |                  0.1%   [7]        
7      conv2d_7                                   |||                2.1%   |                  0.1%   [8]        
8      conv2d_8                                   |||                2.1%   |                  0.1%   [9]        
9      conv2d_9                                   |||                2.3%   |                  0.1%   [10, 11]   
10     conv2d_10                                  |||                2.1%   |                  0.1%   [12]       
11     eltwise_11                                 |                  0.0%   |                  0.0%   [13]       
12     conv2d_12                                  |||                2.1%   |                  0.1%   [14]       
13     pad_13                                     |                  0.0%   |                  0.0%   [15]       
14     conv2d_14                                  |                  0.6%   |                  0.1%   [16]       
15     conv2d_15                                  ||                 1.0%   |                  0.2%   [17]       
16     conv2d_16                                  |||                2.1%   |                  0.4%   [18]       
17     conv2d_17                                  ||                 1.2%   |                  0.3%   [19, 20]   
18     conv2d_18                                  |||                2.1%   |                  0.4%   [21]       
19     eltwise_19                                 |                  0.0%   |                  0.0%   [22]       
20     conv2d_20                                  |||                2.1%   |                  0.4%   [23]       
21     conv2d_21                                  ||                 1.2%   |                  0.3%   [24, 25]   
22     conv2d_22                                  |||                2.1%   |                  0.4%   [26]       
23     eltwise_23                                 |                  0.0%   |                  0.0%   [27]       
24     conv2d_24                                  |||                2.1%   |                  0.4%   [28]       
25     pad_25                                     |                  0.0%   |                  0.0%   [29]       
26     conv2d_26                                  |                  0.3%   |                  0.3%   [30]       
27     conv2d_27                                  |                  0.8%   |                  0.6%   [31]       
28     conv2d_28                                  ||                 1.2%   |                  0.9%   [32]       
29     conv2d_29                                  |                  0.4%   |                  0.4%   [33, 34]   
30     conv2d_30                                  ||                 1.2%   |                  0.8%   [35]       
31     eltwise_31                                 |                  0.0%   |                  0.0%   [36]       
32     conv2d_32                                  ||                 1.2%   |                  0.9%   [37]       
33     conv2d_33                                  |                  0.4%   |                  0.4%   [38, 39]   
34     conv2d_34                                  ||                 1.2%   |                  0.8%   [40]       
35     eltwise_35                                 |                  0.0%   |                  0.0%   [41]       
36     conv2d_36                                  ||                 1.2%   |                  0.9%   [42]       
37     conv2d_37                                  |                  0.4%   |                  0.4%   [43, 44]   
38     conv2d_38                                  ||                 1.2%   |                  0.8%   [45]       
39     eltwise_39                                 |                  0.0%   |                  0.0%   [46]       
40     conv2d_40                                  ||                 1.2%   |                  0.9%   [47]       
41     conv2d_41                                  |                  0.4%   |                  0.4%   [48, 49]   
42     conv2d_42                                  ||                 1.5%   |                  1.1%   [50]       
43     conv2d_43                                  |||                2.1%   |                  1.6%   [51]       
44     conv2d_44                                  |                  0.6%   |                  0.6%   [52, 53]   
45     conv2d_45                                  |||                2.1%   |                  1.5%   [54]       
46     eltwise_46                                 |                  0.0%   |                  0.0%   [55]       
47     conv2d_47                                  |||                2.1%   |                  1.6%   [56]       
48     conv2d_48                                  |                  0.6%   |                  0.6%   [57, 58]   
49     conv2d_49                                  |||                2.1%   |                  1.5%   [59]       
50     eltwise_50                                 |                  0.0%   |                  0.0%   [60]       
51     conv2d_51                                  |||                2.1%   |                  1.6%   [61]       
52     pad_52                                     |                  0.0%   |                  0.0%   [62]       
53     conv2d_53                                  |                  0.1%   |                  0.6%   [63]       
54     conv2d_54                                  ||                 0.9%   ||                 2.6%   [64]       
55     conv2d_55                                  ||                 1.6%   |||                4.7%   [65]       
56     conv2d_56                                  |                  0.3%   |                  1.0%   [66, 67]   
57     conv2d_57                                  ||                 1.6%   ||                 4.4%   [68]       
58     eltwise_58                                 |                  0.0%   |                  0.0%   [69]       
59     conv2d_59                                  ||                 1.6%   |||                4.7%   [70]       
60     conv2d_60                                  |                  0.3%   |                  1.0%   [71, 72]   
61     conv2d_61                                  ||                 1.6%   ||                 4.4%   [73]       
62     eltwise_62                                 |                  0.0%   |                  0.0%   [74]       
63     conv2d_63                                  ||                 1.6%   |||                4.7%   [75]       
64     conv2d_64                                  |                  0.3%   |                  1.0%   [76, 77]   
65     conv2d_65                                  ||||               3.1%   ||||               8.9%   [78]       
66     conv2d_66                                  ||||||||||||||||  12.0%   ||||||||||||||||  34.6%   [79]       
67     pool_67                                    |                  0.1%   |                  0.0%   [80]       
68     MobileNetV2_dense_MatMul                   |                  0.2%   ||                 4.5%   [81]       
69     nl_69                                      |                  0.0%   |                  0.0%   [82]       
70     conversion_70                              |                  0.0%   |                  0.0%   [83]       
------ ------------------------------------------ ------------------------- ------------------------- ---------- 
macc=10,762,574 weights=429,468 act=129,536 ram_io=0
 
 Requested memory size by section - "stm32h7" target
 ------------------------------ -------- --------- -------- --------- 
 module                             text    rodata     data       bss 
 ------------------------------ -------- --------- -------- --------- 
 vehicle_detector.o                4,724    38,806   29,548     1,188 
 NetworkRuntime1020_CM7_GCC.a     33,692         0        0         0 
 vehicle_detector_data.o              48        16       88         0 
 lib (toolchain)*                  1,006       624        0         0 
 ------------------------------ -------- --------- -------- --------- 
 RT total**                       39,470    39,446   29,636     1,188 
 ------------------------------ -------- --------- -------- --------- 
 weights                               0   429,472        0         0 
 activations                           0         0        0   129,536 
 io                                    0         0        0         0 
 ------------------------------ -------- --------- -------- --------- 
 TOTAL                            39,470   468,918   29,636   130,724 
 ------------------------------ -------- --------- -------- --------- 
 *  toolchain objects (libm/libgcc*)
 ** RT AI runtime objects (kernels+infrastructure)
  
  Summary - "stm32h7" target
  ---------------------------------------------------
               FLASH (ro)      %*   RAM (rw)       % 
  ---------------------------------------------------
  RT total        108,552   20.2%     30,824   19.2% 
  ---------------------------------------------------
  TOTAL           538,024            160,360         
  ---------------------------------------------------
  *  rt/total


Generated files (7)
----------------------------------------------------------------------------------------- 
C:\Users\administor\.stm32cubemx\vehicle_detector_output\vehicle_detector_data_params.h   
C:\Users\administor\.stm32cubemx\vehicle_detector_output\vehicle_detector_data_params.c   
C:\Users\administor\.stm32cubemx\vehicle_detector_output\vehicle_detector_data.h          
C:\Users\administor\.stm32cubemx\vehicle_detector_output\vehicle_detector_data.c          
C:\Users\administor\.stm32cubemx\vehicle_detector_output\vehicle_detector_config.h        
C:\Users\administor\.stm32cubemx\vehicle_detector_output\vehicle_detector.h               
C:\Users\administor\.stm32cubemx\vehicle_detector_output\vehicle_detector.c               
